data/simulations/gnn_model_with_trajectories.pth (torch, 310228 bytes, 14 tensors)

conv1.lin_rel.weight f4 [128, 7]
0	0xbe2eb302	-0.17060474
1	0xbdce20b1	-0.10064829
2	0x3e70b0ea	0.23504987
3	0x3d8cf3ce	0.068824396
4	0x3aaeea15	0.0013344908
5	0x3e56f163	0.20990519
6	0xbddae01a	-0.10687275
7	0xbe22b3c0	-0.15888882
8	0x3d25f0af	0.040512737
9	0x3e1e0d06	0.15434656
10	0x3d3037e5	0.043022055
11	0xbd812fa4	-0.06307915
12	0xbe527cb3	-0.20555381
13	0xbd8ba1be	-0.06817959
14	0xbce5fa8f	-0.028073577
15	0x3dfc50e5	0.12320117
16	0xbd376f89	-0.044784103
17	0x3c1b605e	0.009483425
18	0x3e0b554b	0.13606755
19	0xbdab2bc2	-0.083579555
20	0x3cd22737	0.025653465
21	0xbaae351b	-0.0013290973
22	0x3c2d1a8c	0.010565411
23	0xbabcc9e5	-0.0014403431
24	0x3be4aa50	0.0069783106
25	0x3bbf9fcc	0.0058479067
26	0x3c3665e1	0.011132688
27	0xb9555f4e	-0.00020348767
28	0x3d8c21a9	0.06842358
29	0xbe8b56eb	-0.2721475
30	0x3e7b6ec5	0.24553974
31	0xbe03b225	-0.12860925
32	0xbd9b5ba9	-0.07585842
33	0x3de6a5a1	0.1126206
34	0x3d8ed488	0.06974131
35	0xbd741f67	-0.05960026
36	0xb928c8c2	-0.00016096517
37	0x3e20796b	0.15671317
38	0x3dc5c84a	0.09657343
39	0xbe066702	-0.13125232
40	0xbc9c4d48	-0.01907982
41	0x3e14e99c	0.1454224
42	0xbe080a05	-0.13285072
43	0x3d88aa91	0.06673158
44	0xbd7ee555	-0.062230427
45	0xbd6fbe5d	-0.058531154
46	0x3d2220ac	0.03958194
47	0xbdb71117	-0.089388065
48	0xbc571070	-0.013126478
49	0xbcc74cab	-0.02432855
50	0x3e01a9b8	0.12662399
51	0x3dd6323c	0.104588
52	0x3d929119	0.071565814
53	0xbe3a4ea5	-0.18194063
54	0x3e60dbe3	0.2195888
55	0xbd3cd7e9	-0.046104345
56	0xbdb3b349	-0.0877443
57	0x3b32037d	0.0027162724
58	0x3e1b9d4a	0.1519672
59	0xbe68fef7	-0.22753511
60	0x3d3207f7	0.043464627
61	0xbd944ce4	-0.07241228
62	0x3da40212	0.080082074
63	0xbd95dc11	-0.07317365
64	0xbdbdb2e6	-0.09262638
65	0x3e9709f3	0.29499778
66	0x3a5ab997	0.0008343695
67	0xbd87e1f4	-0.06634894
68	0x3d3aca51	0.0456031
69	0x3db3deb0	0.08782709
70	0x3d6e5547	0.058186796
71	0x3c01e4fe	0.007928131
72	0xbb9feb0d	-0.004880315
73	0xbc865484	-0.016397722
74	0xbc58d0a0	-0.013233334
75	0xbb6f6e26	-0.003653416
76	0x3b58dbf5	0.003309009
77	0xbbfe9aeb	-0.0077699325
78	0xbd0d3617	-0.034475412
79	0x3d433666	0.0476593
80	0xbc187360	-0.009304851
81	0x3c96e406	0.018419277
82	0x3ca69002	0.02033234
83	0xbc261c5f	-0.0101386
84	0xbe5717a1	-0.21005107
85	0xbd9adec7	-0.07562023
86	0xbd87a76e	-0.066237316
87	0xbd4f26f8	-0.050574273
88	0x3d6512a7	0.05592599
89	0xbc481ba8	-0.012213625
90	0xbc45e24b	-0.012077878
91	0x3d80d834	0.062912375
92	0xbdd4c13b	-0.10388418
93	0x3d819f41	0.063292034
94	0x3e1ec2c1	0.1550398
95	0xbe3b4f3c	-0.18291944
96	0xbdddd906	-0.108324096
97	0x3d3e88ab	0.046517055
98	0x3d4a7276	0.049425565
99	0x3e0efad1	0.13962866
100	0x3e693f0c	0.22777957
101	0x3d8b4d93	0.068019055
102	0x3e094415	0.13404877
103	0x3e2b3d13	0.16722517
104	0xbdcaf936	-0.099108145
105	0x3e103b68	0.14085162
106	0xbe293131	-0.16522671
107	0xbe0e2748	-0.13882172
108	0xbe1516a3	-0.14559416
109	0x3bb69693	0.005572149
110	0xbd7f8bcb	-0.062389176
111	0x3ccb1124	0.024788447
112	0x3dde23bb	0.10846659
113	0x3e2e3437	0.17012106
114	0x3d917ed8	0.07104272
115	0x3e090a2b	0.13382785
116	0xbcf50811	-0.029911073
117	0xbd9ceb88	-0.076621115
118	0xbcfe11c5	-0.031014333
119	0x3dc76a79	0.09737105
120	0xbd7d2273	-0.06180043
121	0xbdb19753	-0.08671441
122	0xbb067ee7	-0.0020522417
123	0xbdd6178f	-0.10453712
124	0xbdc86183	-0.09784224
125	0x3cc818cb	0.024425885
126	0xbde3a6fd	-0.11115835
127	0xbdb663ca	-0.08905752
128	0x3dd00f06	0.101591155
129	0xbd43e329	-0.04782406
130	0x3cb7294c	0.02235856
131	0x3cd2eaf8	0.025746807
132	0xbc752413	-0.014962214
133	0xbe1aa787	-0.15102969
134	0xbda46f95	-0.08029095
135	0xbd4c9834	-0.04994984
136	0x3d0fb1ba	0.035081603
137	0xbcb02d0b	-0.021505853
138	0x3de6f819	0.112777896
139	0xbdb3c549	-0.087778635
140	0x3d470d63	0.04859675
141	0xbd41fbeb	-0.04735939
142	0xbe25d80e	-0.161957
143	0xbd09f846	-0.033684038
144	0xbde2916b	-0.110628925
145	0xbe6f6f4b	-0.23382299
146	0xbe6b9a42	-0.23008063
147	0xbcafcd0f	-0.021460084
148	0xbd35488c	-0.04425864
149	0x3c76849b	0.015046264
150	0xbc089cd6	-0.008338174
151	0xbccad254	-0.024758495
152	0x3c634723	0.013871941
153	0x3ad296da	0.0016066686
154	0xbd86e272	-0.0658616
155	0xbdac632f	-0.08417355
156	0x3d1bdc09	0.03805164
157	0xbc2367d3	-0.009973484
158	0xbe1d9122	-0.15387395
159	0x3ce3fd26	0.027830672
160	0x39b22e1c	0.0003398516
161	0xbd81b740	-0.0633378
162	0xbda9df04	-0.0829449
163	0x3e468909	0.19388212
164	0xbc7839a2	-0.0151504595
165	0xbc24286a	-0.010019401
166	0xbd976a5c	-0.07393333
167	0x3e3b31b6	0.18280682
168	0x3da3b581	0.079936035
169	0xbe3e5f2e	-0.18590996
170	0x3e6d1e78	0.23156154
171	0x3d2e5c94	0.042568758
172	0x3d5e98c2	0.0543449
173	0xbc62fbe8	-0.013854004
174	0x3e94d68e	0.29069942
175	0xbdc18556	-0.0944926
176	0x3d2c0785	0.04199936
177	0xbe0bf2b4	-0.13666803
178	0xbdd66222	-0.10467936
179	0x3d32d963	0.043664347
180	0xbdc5bcb7	-0.09655135
181	0xbdd0f992	-0.10203852
182	0x3d2daee5	0.04240312
183	0x3ddd7c3e	0.10814713
184	0xbdac0ee9	-0.084012814
185	0x3d8cc93c	0.0687432
186	0xbdbf448e	-0.09339248
187	0x3e46c0a7	0.19409429
188	0x3e21326c	0.1574189
189	0xbd6c2921	-0.05765641
190	0xbcdab362	-0.026696865
191	0x3d0b96e2	0.03407944
192	0x3cebb8d1	0.02877465
193	0xbd079903	-0.033104908
194	0x3c41fa00	0.01183939
195	0x3bbe3a39	0.0058052805
196	0xbd5e5ff5	-0.05429073
197	0xbc85da2c	-0.016339384
198	0x3cbfa817	0.023395581
199	0xbd37f011	-0.04490668
200	0xbd3ca830	-0.046058834
201	0x3dcded47	0.10055023
202	0xbe5f4bd1	-0.21806265
203	0x3db54c62	0.088524595
204	0xbe174167	-0.14771043
205	0x3d5c55dd	0.053792823
206	0x3e0a2bf4	0.1349333
207	0xbbc08dc8	-0.0058762766
208	0xbe0b9d71	-0.13634278
209	0xbd828cff	-0.06374549
210	0xbbdb1b63	-0.0066866144
211	0xbd374019	-0.044738863
212	0x3bc6ffdc	0.0060729813
213	0xbdb4110a	-0.087923124
214	0xbe53c60a	-0.20681015
215	0x3d748db3	0.059705447
216	0xbdbe8ffc	-0.093048066
217	0xbcbd4d7f	-0.023108242
218	0x3e26b6da	0.1628069
219	0xbda29da6	-0.07940225
220	0xbe3e493c	-0.18582624
221	0x3cde064b	0.02710261
222	0x3e82f1f3	0.25575218
223	0x3d60d67a	0.05489204
224	0x3dfc1a96	0.12309758
225	0x3e67251f	0.22572754
226	0xbe0ab964	-0.13547283
227	0x3e72180a	0.23641983
228	0x3ddcfa1a	0.107898906
229	0xbdb4cef1	-0.088285334
230	0x3ddd409a	0.108033374
231	0xbd171144	-0.0368817
232	0xbe472dea	-0.19451109
233	0x3e48c4fd	0.19606395
234	0x3c4c669b	0.012475635
235	0x3dee72ab	0.11642965
236	0xbe2625d5	-0.1622537
237	0x3d7e24ba	0.062046744
238	0x3e723cd1	0.23656012
239	0xbe124609	-0.14284529
240	0x3e07c21d	0.13257642
241	0x3e082c91	0.1329825
242	0x3dbbe9a4	0.09175423
243	0xbce4d2c4	-0.027932532
244	0xbc331a30	-0.010931537
245	0x3d952b59	0.072836585
246	0xbb31a8f0	-0.0027108751
247	0xbdb00c15	-0.085960545
248	0x3e37c257	0.17945229
249	0x3ba639f1	0.005072825
250	0x3dca1ed2	0.0986916
251	0x3e2fd2d8	0.17170274
252	0x3dc89160	0.09793353
253	0xbe126713	-0.14297132
254	0xbd18d0af	-0.03730839
255	0x3e06efed	0.13177462

conv1.lin_rel.bias f4 [128]
0	0x3d45630d	0.048190165
1	0x3e5d5b09	0.21616758
2	0xbd09d553	-0.033650707
3	0x3ce8349f	0.028345404
4	0xbcb8cba0	-0.022558033
5	0xbe9098e1	-0.28241637
6	0xbeb3d976	-0.35126847
7	0x3de3877f	0.11109828
8	0xbece7e32	-0.40330654
9	0x3cc4f6cc	0.024043463
10	0x3c159123	0.009128842
11	0xbd470287	-0.048586395
12	0xbdcda3fa	-0.10041042
13	0x3e1414b1	0.14461018
14	0xbcd99c16	-0.026563685
15	0xbeac1061	-0.33606246
16	0xbe03c26a	-0.12867132
17	0x3d990e55	0.07473437
18	0xbd980698	-0.07423133
19	0x3e894385	0.26809326
20	0x3e9f8137	0.3115327
21	0xbd204bea	-0.039134897
22	0xbdb0b8a4	-0.086289674
23	0x3e61cc91	0.22050692
24	0x3dad37dd	0.08457921
25	0x3e97b5dc	0.29630935
26	0xbd21c983	-0.039498817
27	0x3ad31c94	0.0016106539
28	0xbeb2aa1a	-0.34895402
29	0xbe930314	-0.28713286
30	0x3d8e0136	0.06933825
31	0xbdb6a1e2	-0.089175954
32	0x3dbb6581	0.0915022
33	0x3e4e0d85	0.20122345
34	0x3df75693	0.120770596
35	0xbe7307a6	-0.23733386
36	0x3b86f332	0.0041183466
37	0xbd331dcf	-0.0437296
38	0xbce4427f	-0.027863739
39	0x3e9ae00b	0.30249056
40	0xbe8c02d8	-0.2734592
41	0x3e43054b	0.19044988
42	0xbeaa0d5c	-0.33213317
43	0xbc03db05	-0.008047824
44	0x3e55a181	0.2086239
45	0x3e797f59	0.24364986
46	0x3e44c6d4	0.19216472
47	0xbddcf80d	-0.107894994
48	0xbe08c8a3	-0.13357787
49	0x3dc61373	0.096716784
50	0x3a892650	0.0010463689
51	0xbd343058	-0.043991417
52	0x3e791c3a	0.24327174
53	0xbe4b0ec9	-0.19829859
54	0xbd011e48	-0.03152302
55	0x3a126328	0.00055842334
56	0x3dfa65d9	0.12226457
57	0xbddc0c4f	-0.10744535
58	0x3e8d4b16	0.2759635
59	0x3d9b6e96	0.07589452
60	0xbe787d8c	-0.24266642
61	0xbccad296	-0.024758618
62	0x3e6afca3	0.22947936
63	0xbc98acf8	-0.018637165
64	0xbdee3adb	-0.116323195
65	0xbded06f6	-0.11573593
66	0x3e71699b	0.23575442
67	0xbd4d4f42	-0.050124414
68	0x3e8ad06b	0.27112135
69	0x3ea88a0d	0.32917824
70	0x3bd3ad93	0.0064599006
71	0xbdd11964	-0.10209921
72	0x3d805d79	0.062678285
73	0xbdf204a3	-0.11817291
74	0xbe2bed39	-0.16789712
75	0xbb36ac6e	-0.0027873772
76	0x3d5ac21e	0.05340778
77	0xbee46af8	-0.4461286
78	0x3e50793d	0.20358749
79	0xbd3ea72e	-0.046546154
80	0xbe9e7650	-0.3094964
81	0xbe3a97de	-0.18221995
82	0x3e1a5462	0.15071252
83	0xbed44773	-0.4146076
84	0x3e57391d	0.2101788
85	0x3e695022	0.22784474
86	0x3e246ff6	0.16058335
87	0xbe5abd7c	-0.21361345
88	0xbec40aad	-0.38289395
89	0xbdbec1a2	-0.09314276
90	0x3e4e7f79	0.20165814
91	0xbe7e7aff	-0.24851607
92	0x3e227e24	0.15868431
93	0x3e4341ae	0.19068024
94	0xbe9275bc	-0.2860545
95	0xbd31b5a4	-0.043386117
96	0xbc7bcf57	-0.015369258
97	0x3e865ea1	0.2624407
98	0xbdc94764	-0.0982807
99	0xbe8119e6	-0.2521507
100	0x3c3607a6	0.011110222
101	0x3cebe633	0.028796291
102	0xbcb7825a	-0.022401024
103	0x3e05b1da	0.13056126
104	0xbda8ab8b	-0.08235844
105	0xbec12bde	-0.3772878
106	0xbda063ef	-0.07831561
107	0xbe1652e3	-0.14680056
108	0xbea9d5f1	-0.33171037
109	0x3e8b8dec	0.27256715
110	0xbe025b15	-0.12730058
111	0x3d8e2a82	0.069417015
112	0xbe0722d7	-0.13196884
113	0x3e825690	0.25456667
114	0x3d68f8bb	0.056877833
115	0x3da7457d	0.08167551
116	0xbe8a0df6	-0.26963776
117	0xbcded101	-0.02719927
118	0xbd6297e4	-0.055320635
119	0xbe95f119	-0.29285505
120	0xbc1fdd20	-0.00975731
121	0xbddf2b9b	-0.10896989
122	0xbd02447f	-0.031803604
123	0xbed0f8b0	-0.40814734
124	0xbdbe053f	-0.09278344
125	0xbeaea671	-0.3411136
126	0x3e25253e	0.16127488
127	0x3d8e0673	0.06934824

conv1.lin_root.weight f4 [128, 7]
0	0xbdf7112a	-0.12063821
1	0xbbfd601b	-0.007732404
2	0x3e8f98a5	0.28046146
3	0x3d9a4267	0.075321965
4	0x3dccad82	0.099940315
5	0x3e17232f	0.14759515
6	0xbdf32c39	-0.11873669
7	0xbd226ecf	-0.039656457
8	0xbe5f6179	-0.21814527
9	0x3e238baa	0.15971246
10	0x3dd93499	0.10605735
11	0x3d89854a	0.06714876
12	0xbdece476	-0.11567013
13	0x3df6f6fa	0.12058826
14	0xbcb5ceaf	-0.022193281
15	0xbe2a0abb	-0.16605656
16	0x3de82e91	0.11337007
17	0x3e306849	0.17227282
18	0xbe27a221	-0.16370441
19	0xbda72f05	-0.08163265
20	0xbdfecd9d	-0.12441561
21	0xbb9702ca	-0.004608487
22	0x3c20047c	0.009766694
23	0xba3ea49c	-0.00072724535
24	0x3bd4a3b4	0.0064892415
25	0x3a436420	0.00074535795
26	0x380b8a38	3.326891e-05
27	0xbbf2a4e2	-0.0074049095
28	0x3c068834	0.008211184
29	0xbe565518	-0.20930898
30	0x3e7cf8f9	0.2470435
31	0xbd9181a3	-0.07104804
32	0xbda96b22	-0.08272387
33	0xbdeb1970	-0.11479461
34	0x3e097539	0.13423623
35	0x3d8b2fb8	0.06796211
36	0xbde8aea8	-0.11361438
37	0xbe19a274	-0.15003377
38	0xbe36444a	-0.17799488
39	0xbd0ab138	-0.033860415
40	0x3d74c755	0.05976041
41	0xbe18f0c0	-0.14935589
42	0x3ba60c08	0.005067352
43	0xbc54c3e8	-0.012986161
44	0xbc303b80	-0.010756373
45	0x3c7b670d	0.015344393
46	0xbe6bd8e1	-0.23031951
47	0x3b8a4cc1	0.0042205756
48	0xbda060fd	-0.07830999
49	0x3dca25e7	0.098705105
50	0xbd992264	-0.074772626
51	0xbce929e8	-0.028462365
52	0x3d7027f0	0.058631837
53	0x3df920dc	0.121644706
54	0x3e354391	0.17701556
55	0x3de2903e	0.11062668
56	0x3e21321d	0.15741773
57	0x3da3c8be	0.07997273
58	0xbd90ab84	-0.07063964
59	0xbd89db41	-0.067312725
60	0xbda32d70	-0.07967651
61	0x3b48f7c9	0.003066527
62	0xbcd6dc74	-0.026228167
63	0xbca6a575	-0.020342568
64	0xbdbdd458	-0.09269017
65	0x3e22421d	0.15845533
66	0x3cf431d4	0.029808916
67	0x3db7f6f1	0.08982647
68	0x3d9500c8	0.0727554
69	0x3dd111a6	0.10208444
70	0xbcc2bb30	-0.023770899
71	0xbd188bde	-0.037242763
72	0x3c05b44a	0.00816066
73	0x3cea27eb	0.028583487
74	0xbc00d41c	-0.007863071
75	0xbc64fc25	-0.013976132
76	0xbbba07aa	-0.005677183
77	0x3a347b84	0.00068848603
78	0xbcd9c5f1	-0.026583644
79	0x3d0bda4d	0.034143735
80	0xb8f5da10	-0.00011723128
81	0xbba1dc88	-0.0049396195
82	0xbc3db96e	-0.011579854
83	0x3c83ffb9	0.016113149
84	0xbe1f4703	-0.15554433
85	0xbd70e39c	-0.058810815
86	0x3e63cc77	0.22245966
87	0x3ccea3d0	0.025224596
88	0xbdba51e2	-0.09097649
89	0xbc5c49b6	-0.013445308
90	0xbc51480d	-0.012773526
91	0x3e0730e0	0.13202238
92	0xbe1a5214	-0.15070373
93	0xbd8dea06	-0.06929402
94	0x3e53797d	0.20651813
95	0xbe3d858e	-0.18507978
96	0xbdefed3c	-0.11715171
97	0xbe3aebf3	-0.1825407
98	0x3c8217e0	0.015880525
99	0x3db4f31b	0.08835431
100	0xbd57846f	-0.052616533
101	0xbe2b0bc9	-0.16703714
102	0x3d6a08a1	0.057137135
103	0xbd8eeb6f	-0.06978499
104	0xbe08133c	-0.13288587
105	0x3baee6c8	0.00533757
106	0xbdb0800a	-0.086181715
107	0xbdbf183b	-0.093307935
108	0x3c337925	0.010954176
109	0x3e0d397f	0.13791464
110	0x3e1207cc	0.14260787
111	0x3e45527e	0.1926975
112	0x3ddde283	0.10834219
113	0xbe087a12	-0.13327816
114	0x3dcc7edf	0.09985136
115	0xbe61a4ba	-0.22035494
116	0xbb1fff52	-0.0024413657
117	0xbdfb415e	-0.12268327
118	0x3da44701	0.080213554
119	0xbe558ac6	-0.20853719
120	0xbe80c972	-0.2515369
121	0x3e25f2e7	0.16205941
122	0xbd8d83c4	-0.06909898
123	0x3dc138ed	0.09434686
124	0xbb7cef09	-0.0038594624
125	0xbc995541	-0.01871741
126	0x3d63018c	0.055421397
127	0xbcac35cc	-0.021021746
128	0x3caae4f9	0.020861136
129	0xbb432703	-0.0029777891
130	0x3d2b4b4a	0.041819848
131	0xbd001da4	-0.031278268
132	0xbc986954	-0.018604912
133	0x3e827dae	0.2548651
134	0xbe151827	-0.14559995
135	0xbc99674f	-0.01872602
136	0xbcaed491	-0.021341594
137	0x3ca4eb0a	0.020131607
138	0xbde4f7d2	-0.111800805
139	0x3b07af72	0.0020703939
140	0xbe339aa1	-0.17539455
141	0xbdfa4cea	-0.122217014
142	0x3b121342	0.002228931
143	0xbd91d532	-0.07120742
144	0x3ca31d92	0.019911561
145	0xbdf6bad4	-0.120473534
146	0x3e57755d	0.21040864
147	0x3cf59390	0.02997759
148	0xbcc4fa2f	-0.024045078
149	0x3b17224b	0.0023061212
150	0xbc1741b4	-0.009231973
151	0xba122e84	-0.00055763894
152	0xbc97a09c	-0.018509202
153	0xbd0020f5	-0.03128143
154	0x3e0ee978	0.13956249
155	0xbe536b5e	-0.20646426
156	0xbd93c842	-0.072159305
157	0x3e24cc0d	0.16093464
158	0xbd92e8a2	-0.071732774
159	0xbddfb892	-0.10923876
160	0xbd962801	-0.07331849
161	0x3dd849bd	0.105609395
162	0x3d425310	0.047442496
163	0xbd513849	-0.05107907
164	0xbe1fe522	-0.15614751
165	0x3d4410c7	0.047867563
166	0xbdf1e3e0	-0.11811042
167	0x3d9c1ff5	0.07623283
168	0xbc91871d	-0.017764622
169	0x3be0c404	0.0068593044
170	0xbda33234	-0.0796856
171	0x3da9cb65	0.082907476
172	0xbd47eb73	-0.048808526
173	0xbe297cf4	-0.16551572
174	0x3bfa2202	0.0076334486
175	0xbbe5a3e0	-0.007008061
176	0x3cef03d0	0.029176623
177	0xbc9effab	-0.019409021
178	0xbe0fa88f	-0.14029144
179	0x3da1a3af	0.07892548
180	0xbdfc2169	-0.1231106
181	0x3e21be29	0.15795197
182	0xbce648fd	-0.028110975
183	0x3d8e7d6f	0.06957518
184	0xbd8416e7	-0.06449681
185	0xbd230511	-0.039799754
186	0xbe1fc828	-0.15603697
187	0xbd3b7c99	-0.045773122
188	0x3e026624	0.12734276
189	0x3d5c775e	0.053824775
190	0xbd140533	-0.03613777
191	0x3c5ad142	0.013355555
192	0xbc823922	-0.015896384
193	0x3a05d564	0.0005105345
194	0xbcc93bcc	-0.024564646
195	0xbc0fc971	-0.008776055
196	0x3e118600	0.14211273
197	0xbd36bd9f	-0.04461443
198	0xbd682eec	-0.056685373
199	0xbdf423f2	-0.119209185
200	0x3dcb841e	0.09937309
201	0x3e787a28	0.24265349
202	0x3cfecef0	0.031104535
203	0x3db7063b	0.08936735
204	0x3c1f7d86	0.009734517
205	0xbca44dc7	-0.020056618
206	0xbdb0693c	-0.08613822
207	0x3dfb55b8	0.12272209
208	0xbe0492bf	-0.12946604
209	0x3d7e9092	0.06214959
210	0x3d9028b4	0.070390135
211	0x3d6a2711	0.057166163
212	0x3d0e55bc	0.03474973
213	0xbde79e7f	-0.113095276
214	0x3c554acd	0.013018322
215	0x3d158d7d	0.036511887
216	0x3c480964	0.01220927
217	0x3e18e859	0.14932384
218	0xbe893aac	-0.26802576
219	0x3e018ef4	0.12652189
220	0x3dcd2772	0.10017289
221	0xbe35b5d5	-0.17745145
222	0x3e1dc614	0.15407592
223	0x3c979435	0.018503288
224	0x3e09908b	0.13434045
225	0xbd9a406f	-0.07531821
226	0x3cbae8bf	0.02281606
227	0xbd44bf01	-0.048033718
228	0xbe7a0ea9	-0.24419655
229	0x3e7debff	0.24797057
230	0x3e4d84eb	0.20070235
231	0xbe1f3c7e	-0.1555042
232	0xbe02da35	-0.12778552
233	0xbe3a3fc7	-0.18188392
234	0x3d6e69e7	0.058206465
235	0xbb38d27c	-0.002820163
236	0x3d8bde26	0.06829481
237	0xbe1d4c60	-0.15361166
238	0xbe53f278	-0.20697963
239	0x3de3be80	0.11120319
240	0xbdff41e6	-0.12463741
241	0x3e0ea2b4	0.13929254
242	0xbe25e8ae	-0.16202042
243	0x3d483bc0	0.048885107
244	0x3dccfb31	0.100088485
245	0xbb92d72c	-0.004481217
246	0xbd29f38c	-0.04149203
247	0x3a5c134c	0.00083952094
248	0xbcfbbb70	-0.030729026
249	0xbd29d204	-0.041460052
250	0xbc10a6dd	-0.008828846
251	0xbe23e056	-0.16003546
252	0x3df54a3f	0.11977052
253	0x3d5b9318	0.053607076
254	0x3dd77858	0.105210006
255	0xbe799ea3	-0.24376921

conv2.lin_rel.weight f4 [128, 128]
0	0xbd549e04	-0.051908508
1	0xbd5505cb	-0.052007478
2	0xba80927a	-0.0009809278
3	0x3ae17724	0.0017201644
4	0xbdbd757f	-0.09250926
5	0x3d83901e	0.064239725
6	0xbd3cad72	-0.046063848
7	0xbde847e6	-0.113418385
8	0x3a1cddf6	0.00059840025
9	0xbc0cf9c9	-0.008604475
10	0x3b363349	0.0027801564
11	0x3b25a482	0.0025275056
12	0x3aa7864a	0.001278111
13	0x3ae6f84c	0.0017621606
14	0xb6527c80	-3.1364907e-06
15	0x3d9da1d2	0.076968804
16	0xb8ab8ed6	-8.180521e-05
17	0xbd2b5fae	-0.041839294
18	0x3bd09077	0.006364878
19	0xbe189a72	-0.14902666
20	0x3cf1105b	0.029426744
21	0x3a2e2f8a	0.0006644657
22	0xbd7aebf4	-0.06126018
23	0xbe0c986c	-0.1373002
24	0xbdcf0ac3	-0.101094745
25	0x3d074f94	0.033034876
26	0xbd57e554	-0.05270894
27	0x3a3d373a	0.0007218007
28	0xbdd6b754	-0.10484186
29	0xbb6616a4	-0.003510871
30	0x3d9b54de	0.075845465
31	0xbb9f89d2	-0.0048687244
32	0xbdf71f34	-0.120664984
33	0x3bb7d3bb	0.005609957
34	0x3bb45a50	0.00550393
35	0xbd3f1f56	-0.046660744
36	0x3ae6a429	0.0017596531
37	0xbba6e62b	-0.005093356
38	0xbd94f949	-0.0727411
39	0xbd128d0a	-0.035779037
40	0xbd3522bf	-0.04422259
41	0x3bf81264	0.0075705517
42	0xbd8d966e	-0.06913458
43	0x3a4b2a08	0.00077500986
44	0xbd8a1621	-0.06742502
45	0xbb8d650e	-0.004315025
46	0x3da06220	0.07831216
47	0xbd354ae5	-0.044260878
48	0xbae80530	-0.0017701741
49	0xb926f6da	-0.00015922953
50	0xbd0ff071	-0.035141412
51	0xbb21c327	-0.002468297
52	0xbd10d71c	-0.035361394
53	0x3c0fe084	0.008781556
54	0xbb949603	-0.0045344844
55	0x3b88522c	0.0041601863
56	0x3d6f8909	0.058480296
57	0xbde15f19	-0.110044666
58	0xbe0bb6c0	-0.13643932
59	0x3ccbd606	0.024882328
60	0x3da2b451	0.07944549
61	0xbcf29b9f	-0.029615222
62	0xbdca3971	-0.09874237
63	0x3d509428	0.050922543
64	0x38dfdbbc	0.00010674397
65	0xbb5c756f	-0.0033639332
66	0x3c29b215	0.0103573995
67	0xbd0e965d	-0.034811366
68	0x3c41cb56	0.011828264
69	0x3c061a3a	0.008184964
70	0xba516404	-0.0007987621
71	0xbb9759ff	-0.0046188827
72	0x3c196877	0.009363285
73	0x3ad6345f	0.0016342512
74	0xba133348	-0.00056152465
75	0xbbe6695e	-0.0070316037
76	0xbd1ec7fd	-0.038764942
77	0x3d0afd62	0.03393305
78	0x3bca518f	0.0061742733
79	0x3a1c595d	0.0005964244
80	0xbb8f4549	-0.004372273
81	0xbcfd1fbd	-0.030898923
82	0xbd414cd8	-0.047192425
83	0xbdf31132	-0.11868514
84	0xbb93bcb7	-0.0045085805
85	0xbc9f02fd	-0.019410605
86	0x3a6e3a93	0.0009087708
87	0xbb58201e	-0.0032978128
88	0x3ae4bb5e	0.0017450859
89	0x3a2994a8	0.000646899
90	0xbb9f6105	-0.0048638606
91	0xbd894998	-0.0670349
92	0xbcce55ce	-0.0251874
93	0xbd05d7d7	-0.032676544
94	0x3b86f222	0.00411822
95	0x3ae6a137	0.0017595653
96	0xb99fb228	-0.0003045958
97	0xbdb3b200	-0.08774185
98	0xb8541ad8	-5.056974e-05
99	0x3b9d9ac4	0.0048097093
100	0x3b838eca	0.0040148245
101	0xbcda5a07	-0.026654257
102	0x3b2644eb	0.0025370668
103	0x3c5f7954	0.013639767
104	0xbe177adf	-0.14792965
105	0x3b2f3ef2	0.00267404
106	0xb9c2929e	-0.00037111802
107	0x3d40c40b	0.04706196
108	0x3bf7d131	0.0075627794
109	0xbd1f69ca	-0.038919248
110	0xbcf5b3b2	-0.029992912
111	0xbe33bd68	-0.17552722
112	0xbb363cde	-0.0027807276
113	0x3da2f486	0.079567954
114	0xbde648fe	-0.11244391
115	0xbe27ea7b	-0.16398041
116	0xba245ba0	-0.00062697567
117	0x3d45f43a	0.048328616
118	0x39bceba8	0.00036033732
119	0x3a80f6ae	0.0009839141
120	0xbb026f47	-0.0019902752
121	0x3d031421	0.03200162
122	0xbcfd0d95	-0.030890265
123	0xbd070d7f	-0.032971855
124	0xb7a71e30	-1.9922009e-05
125	0xbd216734	-0.039405063
126	0xbd18b882	-0.037285335
127	0xbbd0a17f	-0.006366908
128	0xbd4b571c	-0.04964362
129	0xbd9efa0c	-0.077625364
130	0xbcb168b6	-0.021656375
131	0xb569da00	-8.7116496e-07
132	0x3c1a3095	0.009410997
133	0x3d9b889a	0.07594414
134	0x3ca1c4a8	0.019747093
135	0x3d80c9e6	0.06288509
136	0xbe0bed6d	-0.1366479
137	0xbd1e5aec	-0.03866093
138	0x3c36698c	0.011133563
139	0xba8ad9a4	-0.0010593426
140	0x3ca53d12	0.020170722
141	0x3d939cc8	0.07207638
142	0x3e575864	0.21029812
143	0x3e0e37f8	0.13888538
144	0x3dc5d741	0.09660197
145	0x3c7c8f56	0.015415033
146	0x3bcd9216	0.0062735183
147	0x3e1649ef	0.14676641
148	0x3e3f6285	0.18689926
149	0x3a5edf46	0.0008501898
150	0x3a2c1a24	0.00065651746
151	0x3c8dde3d	0.017317886
152	0xbd8a1469	-0.06742174
153	0xbd50025b	-0.050783496
154	0xbd442022	-0.047882207
155	0x3c9d5cdd	0.01920932
156	0xbdb38a63	-0.087666295
157	0xbbec78e0	-0.007216558
158	0x3d5c6237	0.053804602
159	0x3cc87e95	0.024474422
160	0xbdec6231	-0.11542166
161	0xbd161a71	-0.03664631
162	0xbde12ea6	-0.109952256
163	0xbd066b24	-0.03281702
164	0x3c52d9ba	0.012869293
165	0x3aa22e6d	0.0012373455
166	0x3dc414d7	0.095742874
167	0x3e7d6323	0.24744849
168	0xbd45e271	-0.048311654
169	0x3da2ed91	0.079554684
170	0xbde525b0	-0.11188829
171	0xbb8668d3	-0.0041018515
172	0xbde954d3	-0.11393132
173	0x3d298614	0.041387632
174	0xbdf2aa5b	-0.11848899
175	0x3d207b7e	0.03918027
176	0xbd57c463	-0.052677523
177	0x3b6fc7de	0.0036587636
178	0x3c460eee	0.01208852
179	0x3c459e64	0.012061689
180	0xbd0a376a	-0.033744253
181	0xbd4a4bb1	-0.04938859
182	0xbe136fd6	-0.14398131
183	0x3c0b0700	0.008485556
184	0xbe1a2828	-0.15054381
185	0x3dcba317	0.09943216
186	0x3c050db5	0.008120944
187	0xbda7c262	-0.081913725
188	0xbd2c3c50	-0.042049706
189	0x3d656307	0.056002643
190	0xbd8f1ccc	-0.069879144
191	0x3dc076ee	0.09397684
192	0x3cb9195f	0.022595106
193	0x3dceb83e	0.10093735
194	0xbca00a8d	-0.019536281
195	0x3e1d0514	0.15333968
196	0x3d10f0c3	0.03538586
197	0xbc2a2856	-0.010385593
198	0xba6d12ee	-0.0009043653
199	0x3d1d2d9d	0.03837358
200	0xbca3eb5f	-0.020009695
201	0x3d724229	0.059145126
202	0xbdf81f10	-0.121153
203	0x3cbdbc72	0.023161147
204	0xbd1db90e	-0.03850656
205	0xbe2534a5	-0.16133364
206	0xbd0f11b4	-0.034928992
207	0xbb4f49df	-0.0031629724
208	0x3cc95e77	0.024581177
209	0x3daa7220	0.08322549
210	0x3c0825fc	0.008309837
211	0x3aebbd3e	0.0017985476
212	0x3d635df3	0.05550952
213	0xbe054517	-0.13014637
214	0x3e2001a0	0.1562562
215	0x3afc9586	0.0019270636
216	0xbd85eb58	-0.06539029
217	0xbb1d400d	-0.0023994476
218	0x3d935d28	0.071955025
219	0x3e490e3b	0.19634335
220	0x3e5778d1	0.21042182
221	0xbdfd8985	-0.123797454
222	0x3d8ab916	0.067735836
223	0x3cdf84f3	0.027285075
224	0x3caf598f	0.02140501
225	0xbd2460b7	-0.040131297
226	0xbe23e46f	-0.16005109
227	0x3c484ea5	0.012225782
228	0x3b0147a8	0.0019726548
229	0xbd8bfde2	-0.06835534
230	0xbc538564	-0.012910221
231	0xbd5150eb	-0.05110256
232	0x3e05a910	0.13052773
233	0xbc3b9897	-0.0114499545
234	0x3baf6cd4	0.0053535495
235	0x3dcf2f88	0.10116488
236	0x3da40ff4	0.08010855
237	0xbcac09d3	-0.021000778
238	0x3d9f5f15	0.07781807
239	0x3d976830	0.07392919
240	0x3b4b23aa	0.00309966
241	0xbe13ed3b	-0.14445965
242	0x3b4e3f80	0.0031470954
243	0x3d59af3e	0.05314564
244	0x3d20a996	0.03922423
245	0x3dda95e2	0.10673119
246	0xbb9f6367	-0.0048641446
247	0xbc1117a8	-0.008855738
248	0x3c14b1b5	0.009075572
249	0xbced4015	-0.02896122
250	0xbd8365fb	-0.064159356
251	0x3da65dec	0.08123383
252	0x3c4a5fed	0.012351972
253	0xbe1844c2	-0.14869979
254	0x3cdc4674	0.026889063
255	0x3cefbf33	0.029265976

conv2.lin_rel.bias f4 [128]
0	0x3c8aaadc	0.016927175
1	0x3d9d03e3	0.07666757
2	0xbe07aa05	-0.13248451
3	0x3da4e5e6	0.08051662
4	0xbd354949	-0.044259343
5	0x3d7e4163	0.062074076
6	0xbd87f4ca	-0.06638487
7	0xbc86cb3f	-0.016454337
8	0xbd2ce663	-0.0422119
9	0xbd8189d1	-0.063251145
10	0x3cb40b0b	0.021977922
11	0x3cb3a62d	0.021929825
12	0x39f4e78c	0.00046711823
13	0xbdb292a4	-0.08719376
14	0x3d33cabc	0.043894514
15	0xbcd8bd78	-0.026457533
16	0xba4222c2	-0.0007405692
17	0xbdd023f0	-0.101631045
18	0xbdd92b26	-0.10603933
19	0xbc50784b	-0.012723993
20	0xbc77a995	-0.015116115
21	0xbd2e5d10	-0.04256922
22	0xbd459eac	-0.048247024
23	0xbdae855d	-0.08521531
24	0xbd829c23	-0.06377437
25	0xbcdc13a0	-0.026864827
26	0x3af0053d	0.0018312108
27	0x3c7ba89b	0.015360023
28	0xbd3ad42e	-0.045612507
29	0xbd3d97e6	-0.04628744
30	0xbd9586ee	-0.073011264
31	0xbcabbbbe	-0.020963546
32	0xbd5597c1	-0.052146677
33	0x3d72476e	0.059150152
34	0xbdab586f	-0.08366477
35	0xbde0b358	-0.10971707
36	0xbe18189e	-0.1485314
37	0xbd88bc81	-0.06676579
38	0xbcc2892f	-0.023747055
39	0xbdcd03c9	-0.100104876
40	0xbd9c4a42	-0.07631351
41	0x3e009d8c	0.125601
42	0x3de94d0e	0.1139165
43	0xbdb0102a	-0.08596833
44	0xbd458864	-0.048225775
45	0x3d81ecf0	0.0634402
46	0xbd533c7e	-0.05157136
47	0x3ac1cfa1	0.001478661
48	0xbd1f86bb	-0.03894685
49	0xbe1a2067	-0.15051423
50	0xbd780b23	-0.060557496
51	0xbcaa34b2	-0.02077708
52	0xbdc230bc	-0.094819516
53	0xbcd5308f	-0.026024131
54	0xbcf8745e	-0.030328926
55	0xbd9bfa9e	-0.07616161
56	0x3cb2a840	0.021808743
57	0xbd2a2bb7	-0.041545596
58	0xbda82d13	-0.08211722
59	0xbd9f9122	-0.07791354
60	0x3cdaf8c7	0.026729954
61	0x3c563d0c	0.013076078
62	0xbda43f86	-0.08019929
63	0xbd2bf9eb	-0.041986387
64	0xbdc05b21	-0.093923815
65	0xbd112b49	-0.03544167
66	0xbce26b04	-0.02763892
67	0xbdcbee11	-0.09957517
68	0xbd978292	-0.07397951
69	0xbdf52829	-0.119705506
70	0x3cebaf72	0.028770182
71	0xbcc6b81e	-0.024257716
72	0xbaedc3e4	-0.0018140045
73	0x3cae68b2	0.021290157
74	0xbae78ed8	-0.0017666472
75	0x3d341297	0.04396304
76	0xbdde4813	-0.10853591
77	0xbdedb6ad	-0.11607108
78	0xbda3ba68	-0.079945385
79	0xbd9bfdec	-0.07616791
80	0xbcb430fb	-0.021996012
81	0xbd9d9c1e	-0.076957926
82	0xbdadfa76	-0.08495037
83	0xbd62d337	-0.05537721
84	0xbd3a476c	-0.04547827
85	0xbd93fd0e	-0.07226001
86	0xbc95b09a	-0.018272687
87	0xbdb51339	-0.08841557
88	0x3de13954	0.109972626
89	0x3c693074	0.0142327435
90	0xbd8a01a1	-0.06738592
91	0xbde8a6e0	-0.11359954
92	0xbd3c6231	-0.04599208
93	0x3c2258b5	0.009908845
94	0x3b93555a	0.0044962587
95	0xbbc5d69e	-0.0060375473
96	0xbdf1a052	-0.11798157
97	0xbddbfaf3	-0.10741224
98	0xbd4f97f4	-0.050682023
99	0xbd619463	-0.055073153
100	0xbdbbfd82	-0.09179212
101	0x3dc65c08	0.09685522
102	0xbd8bc59e	-0.06824802
103	0xbc8f58f4	-0.01749847
104	0xbdf2102c	-0.11819491
105	0xbe039d54	-0.12852985
106	0xbc68269f	-0.014169364
107	0xbdda914b	-0.10672244
108	0xbd78cefa	-0.060744263
109	0xbdc4e52f	-0.09614026
110	0xbdb68e4a	-0.08913858
111	0xbc332c10	-0.010935798
112	0xbd63f228	-0.05565086
113	0xbdd9fafc	-0.106435746
114	0xbd820d94	-0.06350246
115	0xbda54421	-0.08069635
116	0xbd7b17b7	-0.061301913
117	0xbb69c4ae	-0.0035670209
118	0xbd88ced2	-0.06680073
119	0xbda2f30b	-0.07956513
120	0x3af90981	0.0019000025
121	0x3c99af1a	0.018760253
122	0xbdae9d67	-0.08526116
123	0xbd44aa1f	-0.048013803
124	0x3d88c4a7	0.066781335
125	0xbda202cb	-0.07910689
126	0x3802c8dc	3.118148e-05
127	0xbc2a9eca	-0.010413835

conv2.lin_root.weight f4 [128, 128]
0	0xbdc49954	-0.095995575
1	0xbbd807e8	-0.0065927394
2	0x3bda0143	0.0066529824
3	0xbbcbeb34	-0.0062231068
4	0x3d8e1a5f	0.06938624
5	0x3d86492c	0.06556925
6	0xbbefdd8f	-0.007320113
7	0x3d9ea0e5	0.07745532
8	0x3b0954ae	0.0020955014
9	0xbc99c416	-0.018770259
10	0x3ba48202	0.005020381
11	0xb9d3ecb1	-0.00040421405
12	0xbd76e3be	-0.060275786
13	0xba202ada	-0.0006109901
14	0xbbac9cfe	-0.0052677384
15	0xbdf7c6d6	-0.12098472
16	0x3b32a0a1	0.0027256387
17	0x3d4b42b2	0.049624152
18	0x3a05b925	0.0005101136
19	0xba2fc2b3	-0.00067047327
20	0xbe24dd33	-0.16100006
21	0xbaad8b11	-0.0013240298
22	0xbd03c511	-0.03217036
23	0xbd0e7824	-0.034782544
24	0xbcda70b6	-0.026665073
25	0xbd610ad0	-0.054941952
26	0xbd270db9	-0.04078457
27	0xbb02b631	-0.001994502
28	0xbdd51e54	-0.10406175
29	0x39c14d34	0.0003686935
30	0xbe14109d	-0.14459462
31	0xbc8b55fd	-0.017008776
32	0xbe220d1c	-0.15825313
33	0xbdd9b1d6	-0.10629623
34	0xbb087e10	-0.0020827092
35	0x3d8b02e6	0.06787662
36	0xbd8d488d	-0.068986036
37	0xba46ac2e	-0.00075787574
38	0xbd28227d	-0.041048516
39	0xbd1ff6cc	-0.039053723
40	0xbde9b3d9	-0.11411256
41	0x3ba34003	0.004981996
42	0xbe2029e8	-0.15640986
43	0x3b2640d3	0.0025368228
44	0xbc6258bb	-0.0138151
45	0xbac6bf17	-0.001516315
46	0xbd339474	-0.043842748
47	0xbd84f090	-0.06491196
48	0xbb2e1938	-0.0026565325
49	0x3b976021	0.0046196138
50	0xbc83521a	-0.01603036
51	0xbc016b17	-0.007899067
52	0xbd168d64	-0.036755934
53	0x39cfc6af	0.00039630148
54	0xbb8bd6f6	-0.0042675687
55	0xbac0a188	-0.0014696578
56	0xbdf7456a	-0.120737866
57	0xbd0869a1	-0.03330386
58	0xbd3c3d0c	-0.045956656
59	0x3d4f98a2	0.05068267
60	0xbe2ca4b1	-0.168597
61	0xbde2d5c2	-0.11075927
62	0xbc93214a	-0.01796021
63	0xbd13fe7f	-0.03613138
64	0x35bc4100	1.4026009e-06
65	0xbab5b542	-0.0013863223
66	0xbda68c7b	-0.08132263
67	0x399159a3	0.0002772334
68	0xbd628d74	-0.05531068
69	0xbb293280	-0.0025817454
70	0xbb7fd454	-0.003903647
71	0xbbfa9002	-0.0076465616
72	0x3d1a10b7	0.037613597
73	0xbdc1cf66	-0.09463386
74	0x3b9820f9	0.0046426025
75	0x3a0a24aa	0.00052697456
76	0xbde42c9b	-0.1114132
77	0xbe1603fe	-0.1464996
78	0xbbfb6f7c	-0.007673202
79	0x3994ccda	0.00028381386
80	0xba1da10e	-0.0006013074
81	0xbd425ff6	-0.047454797
82	0x3d2ddbae	0.04244583
83	0xbd36c391	-0.0446201
84	0x3bae0c34	0.0053115133
85	0xbdf4aefb	-0.119474374
86	0x3a50dacc	0.00079671736
87	0xb9ced369	-0.00039448895
88	0x3b015f30	0.0019740574
89	0xbb68535a	-0.0035450072
90	0x3babdce4	0.005244838
91	0xbe12b276	-0.1432589
92	0x3d8c1ecd	0.06841812
93	0xbe12a08d	-0.14319058
94	0xbbae794e	-0.0053245192
95	0xba21340b	-0.00061494176
96	0x3bf5a790	0.0074967816
97	0xbd8bbc7a	-0.068230584
98	0x39b9c5d4	0.00035433343
99	0xba829fe1	-0.000996586
100	0xba9d0cf0	-0.0011982005
101	0xbd5fff84	-0.054687038
102	0xbdc69018	-0.096954525
103	0x3b220ff6	0.0024728752
104	0x3daee15e	0.08539079
105	0xba3e86ef	-0.00072680315
106	0x3c0169be	0.007898746
107	0x3c978276	0.018494826
108	0xbd608402	-0.054813392
109	0x3c127c8f	0.00894083
110	0xbe1a0d6c	-0.15044183
111	0x3c846aa6	0.016164135
112	0xba2e8614	-0.00066575524
113	0xbd515176	-0.051103078
114	0xbd82ccb7	-0.063867025
115	0xbca19022	-0.019722048
116	0x3a056fba	0.0005090196
117	0xbd5fdc41	-0.05465341
118	0xbaf5fe61	-0.0018767827
119	0xb959b40c	-0.00020761805
120	0xba555fb0	-0.0008139564
121	0xbd1a05f3	-0.03760333
122	0x3ba9cb5b	0.0051817126
123	0xbd1bfd67	-0.03808346
124	0x39a96544	0.0003230964
125	0x3ca49ac2	0.020093326
126	0xbe1879e2	-0.14890245
127	0x3ce3cf41	0.027808787
128	0x3d244c42	0.040111788
129	0xbc984a9f	-0.01859027
130	0x3d207b3b	0.03918002
131	0xbb0f3428	-0.0021851156
132	0xbcdf4555	-0.02725474
133	0xbe0c8275	-0.1372164
134	0xbdd7bfc8	-0.10534626
135	0x3dc94ac9	0.09828717
136	0x3cc408b5	0.023929933
137	0x3dd45a83	0.10368826
138	0x3b8a63a4	0.004223304
139	0xbbac59a0	-0.0052597076
140	0xbe0cb2a0	-0.13740015
141	0x3c1963d5	0.009362181
142	0x3cd7feb4	0.02636657
143	0xbc86ed69	-0.016470628
144	0xbd28ca4c	-0.04120855
145	0x3d42d80b	0.047569316
146	0x3bb1429f	0.005409553
147	0x3da824da	0.08210154
148	0x3dd7105f	0.105011694
149	0x3b2f3e62	0.0026740064
150	0xbcbc2efc	-0.022971623
151	0x3d483964	0.048882857
152	0x3e24068c	0.16018122
153	0xbc510a51	-0.012758807
154	0x3dd56da5	0.10421304
155	0x3c34d743	0.0110376505
156	0xbe394d06	-0.18095788
157	0xbb8c831e	-0.0042880913
158	0x3e2de964	0.16983563
159	0xbc9c6367	-0.019090367
160	0xbd69cf91	-0.057082716
161	0xbd687175	-0.056748826
162	0xbddf409a	-0.10900994
163	0x3c85576e	0.016277041
164	0x3ddce9f4	0.107868105
165	0x3a2a10d8	0.0006487495
166	0xb8616bb5	-5.374449e-05
167	0x3e143dbd	0.14476676
168	0x3e40eec7	0.18841086
169	0x3d531545	0.051533956
170	0xbe3011f3	-0.17194347
171	0xbbf04f73	-0.00733369
172	0x3e0cea37	0.13761221
173	0x3cb17b17	0.02166514
174	0x3e213385	0.1574231
175	0x3dc0e990	0.094195485
176	0x3c023dc1	0.007949294
177	0x3ca07620	0.019587576
178	0xbc92e8b1	-0.017933222
179	0x3c9009e8	0.017582849
180	0x3d3469a9	0.044046078
181	0xbde68816	-0.11256425
182	0xbd952229	-0.07281906
183	0x3b7b16f0	0.0038313232
184	0x3dbbb118	0.09164637
185	0xbd10d169	-0.03535596
186	0x3d863a58	0.06554097
187	0xbd075a84	-0.033045307
188	0xbc3d3b28	-0.0115497485
189	0xbd7cb0d1	-0.061692063
190	0xbd334f26	-0.043776654
191	0xbe08a2a0	-0.13343287
192	0xbbaaa4ba	-0.005207625
193	0x3e15d963	0.14633708
194	0x3be4ded3	0.0069845705
195	0xbe1ac098	-0.15112531
196	0x3e5c6cd4	0.2152589
197	0xbe078b09	-0.13236631
198	0x3a3bbc70	0.0007161563
199	0x3a372e6d	0.0006987814
200	0x3db82b93	0.08992686
201	0xbdf65834	-0.12028542
202	0xbc84be63	-0.016204065
203	0x3d0cc9fd	0.03437232
204	0xbd9ae1bd	-0.075625874
205	0x3e2cf16d	0.16888972
206	0x3dda59ef	0.10661685
207	0xbbb03877	-0.005377825
208	0xbe05722b	-0.13031833
209	0xbd67d117	-0.056595888
210	0x3d6e1d1c	0.05813323
211	0x3c371a29	0.011175671
212	0xbd798299	-0.060915563
213	0x3c95cf63	0.018287366
214	0x3cc3dc0f	0.023908643
215	0x3b71363f	0.0036806015
216	0xba19295e	-0.0005842651
217	0x3babbeff	0.0052412744
218	0xbc1bece5	-0.009516929
219	0xbd844b03	-0.0645962
220	0xbe3144bf	-0.17311381
221	0xbd4585df	-0.048223373
222	0x3d9b9316	0.07596414
223	0x3d75428c	0.059877917
224	0x3b06abdb	0.0020549211
225	0xbc4acd21	-0.012378008
226	0x3dad18dd	0.08452008
227	0x39c90855	0.00038343915
228	0x3bd56a99	0.0065129516
229	0x3e3898f1	0.18027093
230	0xbe3ec45a	-0.1862959
231	0xbdd868a4	-0.105668336
232	0x3e11d619	0.14241828
233	0xbd8034b2	-0.06260051
234	0x3c0cc2bd	0.008591351
235	0x3a5fdc9a	0.0008539647
236	0x3c43b2cb	0.011944483
237	0xbd91011b	-0.07080289
238	0xbd3b21a0	-0.045686364
239	0x3e04e99a	0.12979737
240	0x3b801b09	0.003909473
241	0xbc68bf23	-0.014205727
242	0x3dae8b37	0.08522647
243	0x3d93075d	0.07179139
244	0x3b90112e	0.004396579
245	0x3d61f8d9	0.05516896
246	0xba56e8e2	-0.00081981544
247	0x3a2cd694	0.0006593254
248	0x3d01dd18	0.031704992
249	0xbc7dfdc0	-0.015502393
250	0x3c72013f	0.014770805
251	0x39b688ca	0.0003481566
252	0xbce6b315	-0.028161565
253	0x3d3b35a6	0.04570546
254	0x3c9fbd94	0.019499578
255	0xbcf43a78	-0.029813036

conv3.att_src f4 [1, 2, 128]
0	0xbdc1dd29	-0.09466011
1	0x3defb3f7	0.117042474
2	0xbe31a8ed	-0.17349596
3	0xbddae616	-0.10688417
4	0x3df2447a	0.11829467
5	0x3d96cb0b	0.07362946
6	0x3e0ea30c	0.13929385
7	0xbe5fc8f7	-0.21854006
8	0xbe66a984	-0.22525603
9	0xbd8a1280	-0.0674181
10	0xbddd0fa7	-0.10794001
11	0xbdd57c01	-0.104240425
12	0xbd467af3	-0.048457097
13	0xbdf7ad6b	-0.12093624
14	0x3b86a4e4	0.004109012
15	0x3e1b1075	0.15142997
16	0xbd8e4435	-0.06946603
17	0xbdd77b84	-0.105216056
18	0xbd8eaf96	-0.06967084
19	0xbde4b42c	-0.111671776
20	0xbbd09250	-0.006365098
21	0x3de669eb	0.11250671
22	0xbdbd347a	-0.09238525
23	0x3bbe2c44	0.0058036167
24	0x3c9e2af2	0.019307587
25	0x3b74d31d	0.0037357279
26	0xbd33c56c	-0.043889448
27	0xbdb8a1cf	-0.090152375
28	0xbceea094	-0.029129304
29	0x3e5d8acf	0.21634983
30	0xbe10ca64	-0.14139706
31	0x3ce0aa57	0.027424974
32	0x3d37d025	0.044876236
33	0x3e75d0e3	0.24005465
34	0xbe21822a	-0.1577231
35	0xbda3f96c	-0.08006558
36	0x3e72bef6	0.23705658
37	0x3e55cac1	0.20878126
38	0x3afdf13e	0.0019374264
39	0x3d276317	0.040865984
40	0xbc0cd210	-0.008595005
41	0x3e3de634	0.18544847
42	0x3e1f6b39	0.15568246
43	0xbe4434b3	-0.19160728
44	0x3be74ee4	0.007058965
45	0x3df6fb85	0.12059692
46	0x3e173577	0.14766489
47	0xbd323ed3	-0.043516945
48	0x3bfc9528	0.0077082105
49	0x3c807bc7	0.015684022
50	0x3cb2d55a	0.02183025
51	0xbdac4d3b	-0.08413168
52	0x3dc66543	0.09687283
53	0xbde1ec1d	-0.11031363
54	0xbdd14543	-0.10218289
55	0xbc67f256	-0.0141568985
56	0xbd939ef7	-0.072080545
57	0xbca8cab0	-0.020604461
58	0x3cf76030	0.030197233
59	0xbe0ec164	-0.1394096
60	0xbc8e4e53	-0.017371332
61	0x3d4fc57b	0.05072544
62	0x3e503820	0.2033391
63	0xbe09f551	-0.13472487
64	0x3d114ca3	0.035473477
65	0x3dbd62b9	0.092473455
66	0x3d20d788	0.039268047
67	0xbd2f298c	-0.04276423
68	0x3db44e9e	0.088040575
69	0xbe0406b1	-0.12893178
70	0x3d06d8cd	0.0329216
71	0x3d4625b4	0.0483758
72	0x3d465b01	0.04842663
73	0xbdb071c9	-0.08615453
74	0xbd100ccc	-0.035168454
75	0x3e039707	0.12850581
76	0x3e1bc3a1	0.15211345
77	0x3decf00d	0.115692236
78	0x3cc2440d	0.02371409
79	0x3e0507c1	0.12991239
80	0xbdd8c54d	-0.10584507
81	0xbdd83584	-0.10557082
82	0xbe05460c	-0.13015002
83	0x3dc59a28	0.096485436
84	0x3e1a74b8	0.15083587
85	0xbe039a55	-0.12851842
86	0xbc809c66	-0.015699577
87	0xbc33865c	-0.010957327
88	0xbd217f7d	-0.039428223
89	0x3ce80c7d	0.028326267
90	0xbe384f4d	-0.17999001
91	0x3dd9c139	0.106325574
92	0xbd98bf83	-0.07458403
93	0x3dbb6b78	0.091513574
94	0x3e14f823	0.14547782
95	0xbb8880ff	-0.004165768
96	0x3e0307fe	0.12796018
97	0xbdbb3bf3	-0.09142294
98	0x3e1c1c5c	0.15245193
99	0x3e270629	0.16310944
100	0xbe1a0520	-0.15041018
101	0x3d890c64	0.066918164
102	0xbde1d8f6	-0.1102771
103	0xbd323e5c	-0.0435165
104	0xbe137c8a	-0.14402977
105	0xbd3924c7	-0.04520109
106	0x3de76118	0.11297816
107	0xbb9f9a65	-0.0048707
108	0x3daee95c	0.085406035
109	0xbe1a341c	-0.1505894
110	0xbdc5a066	-0.09649734
111	0xbcc0507b	-0.023475876
112	0xbdaa93c2	-0.08328964
113	0xbd89754e	-0.06711827
114	0xbdfff5d1	-0.12498058
115	0x3de1c087	0.1102305
116	0xbe6527f7	-0.22378527
117	0xbcf97470	-0.03045103
118	0xbe1fb4b6	-0.1559628
119	0xbe0fa07b	-0.14026062
120	0xbdf641f5	-0.12024299
121	0x3e196ff2	0.1498411
122	0xbd9168cf	-0.07100069
123	0x3b97d5d9	0.004633647
124	0xbd50cb4c	-0.05097513
125	0x3ded5aed	0.11589608
126	0xbdc34233	-0.09534111
127	0xbdb805d5	-0.08985487
128	0x3d81a652	0.06330551
129	0xbdc2b296	-0.09506719
130	0x3d6f28fa	0.058388688
131	0xbdc45d80	-0.09588146
132	0xbc94289d	-0.018085772
133	0x3d85c150	0.06531012
134	0x3dd3986c	0.103318065
135	0xbe2df2c0	-0.16987133
136	0xbe1e371b	-0.15450709
137	0xbd89e8cd	-0.06733856
138	0x3e4a4e22	0.19756368
139	0xbd592e81	-0.053022865
140	0xbddf3aed	-0.10899911
141	0x3df5ac89	0.11995799
142	0x3e5df7bc	0.21676534
143	0xbd4aeac8	-0.04954031
144	0xbe25598c	-0.1614744
145	0x3cb5126c	0.02210351
146	0xbccdf9b7	-0.025143487
147	0x3df72ef3	0.12069502
148	0xbb72b5ed	-0.0037034706
149	0x3d829ce0	0.06377578
150	0x3e062321	0.13099338
151	0x3d57428f	0.05255371
152	0xbe09f1a3	-0.13471083
153	0x3dae0298	0.084965885
154	0xbdc8955d	-0.09794114
155	0xbe4d84cb	-0.20070188
156	0x3d34adcf	0.04411107
157	0xbe370326	-0.17872295
158	0xbd6e970d	-0.058249522
159	0xbcd27ec9	-0.025695221
160	0x3de3bfe3	0.11120584
161	0x3d51088b	0.051033538
162	0x3db9e10c	0.090761274
163	0xbc626b0b	-0.013819466
164	0x3e7321b9	0.23743333
165	0xbdb22199	-0.086978145
166	0xbde65350	-0.11246359
167	0xbd4c6f79	-0.049910996
168	0x3e46b704	0.19405752
169	0x3e2aa47c	0.16664308
170	0xbd518283	-0.051149856
171	0x3c96da0c	0.01841452
172	0xbdec2096	-0.11529653
173	0x3dd654d2	0.10465397
174	0xbe303430	-0.17207408
175	0xbd6d01ed	-0.057863165
176	0xbd0b998e	-0.034081988
177	0x3c9a50f8	0.018837437
178	0xbe6464e9	-0.22304119
179	0x3cdec3e3	0.027193015
180	0xbd820b96	-0.06349866
181	0x3dce75ea	0.10081084
182	0x3dd3084e	0.10304318
183	0xbcf6aa5a	-0.030110527
184	0x396fb754	0.00022861111
185	0xbdb28e40	-0.08718538
186	0xbe3310ba	-0.1748685
187	0xbdb11124	-0.086458474
188	0x3d767e8e	0.060179286
189	0xbd7be32b	-0.06149594
190	0x3e0b3987	0.13596164
191	0xbe12bd9b	-0.14330141
192	0x3e458d01	0.1929207
193	0x3c8d5308	0.017251506
194	0xbda44e37	-0.08022731
195	0x3de580d2	0.11206211
196	0xbd7a0139	-0.061036322
197	0x3c597fee	0.01327513
198	0x3df895ca	0.12137945
199	0xbcc2fc1b	-0.023801854
200	0x3dc24f34	0.09487763
201	0xbe31072c	-0.17287892
202	0x3e674393	0.22584371
203	0x3e1ebb3f	0.15501116
204	0xbdbf949e	-0.09354518
205	0x3deeddba	0.11663385
206	0x3cf93b09	0.030423658
207	0xbe313cca	-0.17308345
208	0xbc71d5c2	-0.0147604365
209	0xbc184d47	-0.009295768
210	0xbe68ebf5	-0.2274626
211	0xbdc1bbdb	-0.09459659
212	0x3dc785f6	0.09742348
213	0xbd8e62e0	-0.06952453
214	0x3e11f81f	0.14254807
215	0xbde298ad	-0.11064277
216	0x3de4f8d7	0.11180275
217	0x3b149017	0.0022668892
218	0x3df5ecf6	0.12008087
219	0x3e464c23	0.19364981
220	0xbdd1f101	-0.10251046
221	0xbe0acbf0	-0.13554358
222	0xbddb2ab6	-0.10701506
223	0x3e7bb873	0.2458208
224	0x3e6956bf	0.22786997
225	0x3d208cdd	0.039196838
226	0xbd42be16	-0.04754456
227	0x3d626bb8	0.05527851
228	0x3e5a7dd2	0.21337059
229	0xbda1300a	-0.07870491
230	0xbe340659	-0.17580546
231	0x3db3de50	0.08782637
232	0x3e24f207	0.16107951
233	0x3d0cd8ad	0.034386326
234	0x3d473edb	0.048643928
235	0xbda765c2	-0.08173706
236	0xbd8ae82a	-0.06782563
237	0x3c67cb89	0.014147648
238	0x3cdd5aa7	0.027020765
239	0x3e349f16	0.17638811
240	0x3d82cd88	0.06386858
241	0xbe22a550	-0.15883374
242	0x3cf4a0c3	0.029861813
243	0x3d2dd0b6	0.04243537
244	0x3d8b029f	0.06787609
245	0xbdb2ef34	-0.087370306
246	0xbe23a793	-0.15981893
247	0x3daf02de	0.08545469
248	0xbd39c974	-0.045358136
249	0x3d7234bd	0.059132326
250	0x3e1d01d6	0.15332732
251	0xbe4d5b54	-0.2005437
252	0xbe1312fa	-0.14362708
253	0x3daea039	0.08526654
254	0xbe367224	-0.17816979
255	0x3d0ef645	0.03490283

conv3.att_dst f4 [1, 2, 128]
0	0x3d19c457	0.03754076
1	0x3cff0e3b	0.031134715
2	0xbd226f10	-0.0396567
3	0x3d5d027f	0.05395746
4	0xbc9a23f6	-0.018815976
5	0xbd189ad4	-0.03725703
6	0x3c2227c7	0.009897179
7	0x3c89899b	0.016789248
8	0x3d32cf7b	0.0436549
9	0x3d4d74fc	0.050160393
10	0x3d22432d	0.039614845
11	0x3d654249	0.055971418
12	0x3d20ae8f	0.039228972
13	0x3d2b6d94	0.04185255
14	0x3d66f8e5	0.056389708
15	0xbc9ac1ee	-0.018891301
16	0x3d3afdbc	0.045652136
17	0x3d3427ef	0.043983396
18	0xbc94a2dd	-0.018144066
19	0x3d15707b	0.036484223
20	0xbd55d8a9	-0.052208576
21	0xbd7cfb86	-0.06176331
22	0x3d68509d	0.056717504
23	0x3d47553c	0.04866527
24	0x3c93bf0a	0.01803543
25	0x3d0305a7	0.031987812
26	0x3d2b5f6e	0.041839056
27	0x3c373a32	0.011183308
28	0x3d38ce87	0.045118835
29	0x3d1f69a6	0.038919114
30	0x3d1ec903	0.03876592
31	0x3d2763c8	0.040866643
32	0x3d280321	0.04101861
33	0x3cc26903	0.023731714
34	0x3d582e70	0.05277866
35	0x3cb16797	0.02165584
36	0xbb80272a	-0.0039109187
37	0x3d5a1e67	0.05325165
38	0x3d12a6cc	0.0358036
39	0x3ba028fc	0.004887698
40	0x3c96ee94	0.01842431
41	0xbd0cdd32	-0.034390636
42	0x3d39ec6a	0.045391478
43	0x3d6664ff	0.05624866
44	0x3d258bee	0.04041665
45	0x3d0105f3	0.031499814
46	0xbcd54be1	-0.026037158
47	0x3cac0836	0.021000009
48	0x3d1a88a8	0.03772798
49	0x3ce2e13b	0.027695289
50	0xbc8df2be	-0.017327663
51	0x3cba230d	0.022721792
52	0xbc58412b	-0.013199131
53	0x3d19346b	0.037403505
54	0x3d01da97	0.031702604
55	0x3cfda2e0	0.030961454
56	0x3d3f0a14	0.04664047
57	0x3d3c8f7f	0.046035286
58	0xbd09a237	-0.033601966
59	0x3c7b1c32	0.0153265465
60	0x3ce98282	0.028504614
61	0xbcb65ea7	-0.02226193
62	0x3c556d8d	0.013026607
63	0x3d039ad8	0.032130092
64	0xbba07b50	-0.0048975125
65	0xbc807f77	-0.01568578
66	0xbc807b7d	-0.015683884
67	0x3cb001ee	0.021485295
68	0xbd6ac5ab	-0.057317417
69	0x3d02682f	0.03183764
70	0x3d63c300	0.05560589
71	0x3d65d019	0.05610666
72	0x3c95e452	0.018297348
73	0xbc953003	-0.01821137
74	0x3c954481	0.018221142
75	0x3b782152	0.0037861657
76	0xbd505836	-0.050865375
77	0xbc988755	-0.018619219
78	0xbd564c93	-0.05231912
79	0x3ce551d3	0.027993118
80	0x3d649a6a	0.055811323
81	0x3c90b9d4	0.017666735
82	0x3d685db3	0.056729984
83	0xbd4ad61a	-0.04952059
84	0x3c35f412	0.011105554
85	0x3d01b0b1	0.031662647
86	0x3d5b617b	0.05355976
87	0x3d0f14e7	0.034932043
88	0x3d2d53bb	0.04231618
89	0xbd0892ee	-0.033343248
90	0x3d7ef66d	0.06224673
91	0x3d346fa6	0.04405179
92	0xbd4fe024	-0.050750867
93	0x3ce3b850	0.027797848
94	0xbcfeb001	-0.031089785
95	0x3d3a1030	0.045425594
96	0x3cb6e76c	0.022327147
97	0x3c94c422	0.01815993
98	0xbcac2718	-0.021014735
99	0x3d289a1a	0.041162588
100	0x3d68f7aa	0.056876816
101	0x3d47f888	0.048821002
102	0x3d158c8e	0.036510997
103	0x3d58f813	0.052970957
104	0x3d5905fd	0.052984226
105	0x3d6ae0ef	0.05734342
106	0x3d3faed4	0.04679759
107	0x3d008580	0.031377316
108	0x3d19b82b	0.037529152
109	0x3d6563b7	0.0560033
110	0x3d2ee94c	0.042702958
111	0x3d06bfea	0.032897867
112	0x3cd679c6	0.026181113
113	0x3c9a3bc8	0.018827334
114	0xbccccca9	-0.024999933
115	0xbc2d1900	-0.0105650425
116	0x3d030c91	0.031994406
117	0x3d5a72b8	0.05333206
118	0x3cfe0ed5	0.031012932
119	0x3d12b519	0.03581724
120	0x3d1f8289	0.038942847
121	0x3d239d4a	0.039944924
122	0x3cac0ed7	0.02100317
123	0x3c1dab3f	0.009623348
124	0x3c9a0068	0.018799022
125	0x3cd981e4	0.026551194
126	0xbce92be5	-0.028463313
127	0x3d256001	0.04037476
128	0x3e45eda4	0.19328934
129	0xbd2267e8	-0.039649874
130	0x3d6c09e3	0.057626616
131	0xbbdc6e71	-0.006727033
132	0x3d85a9f6	0.06526558
133	0x3e19dfac	0.1502673
134	0x3d23d28a	0.039995708
135	0xbc07980d	-0.008275998
136	0x3e77b970	0.24191833
137	0xbcc63c44	-0.024198659
138	0x3e0122b0	0.12610888
139	0x3d9a22ff	0.07526206
140	0x3c8d7acf	0.017270474
141	0xbe53ec6d	-0.20695658
142	0x3de11446	0.10990195
143	0x3dbd1641	0.0923276
144	0x3db07f17	0.086179905
145	0x3cc0f676	0.023555022
146	0xbd0d18bc	-0.034447417
147	0x3e15f821	0.14645435
148	0x3db6c820	0.089248896
149	0xbdfdf4d5	-0.12400214
150	0x3d425208	0.047441512
151	0xbd6f56a6	-0.058432244
152	0x3e4b3d07	0.19847499
153	0x3de74f54	0.112944275
154	0x3d14ea0d	0.03635602
155	0x3e0b2604	0.1358872
156	0xbdac3a8c	-0.084096044
157	0xbd20c70e	-0.039252333
158	0x3e0570ec	0.13031358
159	0x3d8afcf6	0.0678653
160	0xbdebeb11	-0.11519445
161	0x3e424d03	0.1897469
162	0xbe5fb025	-0.21844538
163	0xbdc4934b	-0.095984064
164	0x3e1f3423	0.15547232
165	0xbe40d4e0	-0.18831205
166	0xbdd1be5b	-0.102413855
167	0xbe576120	-0.21033144
168	0xbde21f4f	-0.11041128
169	0xbe432a3e	-0.19059083
170	0xbd8b1619	-0.06791324
171	0x3d7a67b8	0.06113407
172	0xbe19b848	-0.15011704
173	0x3d96a6ef	0.07356059
174	0x3cdad842	0.026714448
175	0xbd91593c	-0.07097098
176	0x3e0ead48	0.13933289
177	0xbe28bac7	-0.164775
178	0xbe943e1a	-0.2895363
179	0x3e538328	0.20655501
180	0xbe463725	-0.19356973
181	0xbde25376	-0.11051075
182	0x3d0414f2	0.032246538
183	0xbc8d0684	-0.017215021
184	0xbd23b7d4	-0.039970234
185	0x3e4dd1ac	0.20099515
186	0xbe2e132e	-0.16999504
187	0xbcb8f101	-0.022575857
188	0xbe6db8ae	-0.23214981
189	0x3e30e854	0.17276126
190	0xbe1d2bda	-0.1534876
191	0x3be2b4e2	0.0069185356
192	0x3d8cd881	0.06877232
193	0x3ddc3ab5	0.10753385
194	0x3d354dad	0.04426353
195	0x3e541ade	0.20713374
196	0xbd2db2ee	-0.04240697
197	0xbe829dd0	-0.25511026
198	0xbdfaebf3	-0.12252035
199	0xbd6d03fb	-0.057865124
200	0x3d859a32	0.06523551
201	0xbe55de5f	-0.20885609
202	0x3e19191e	0.14950988
203	0x3e43c519	0.19118156
204	0x3e10f76e	0.14156887
205	0xbe37237e	-0.17884633
206	0x3de4b862	0.11167981
207	0xbe4c186b	-0.1993119
208	0xbe71d5da	-0.23616734
209	0x3d315623	0.043295037
210	0xbe7caf51	-0.24676253
211	0xbd80d9ca	-0.0629154
212	0xbe783bdb	-0.24241583
213	0x3d863e0b	0.065548025
214	0xbb985203	-0.0046484484
215	0xbe4f1b81	-0.20225336
216	0x3d8d965c	0.069134444
217	0xbda7e0eb	-0.081971966
218	0x3d4c2785	0.049842376
219	0x3d206068	0.03915444
220	0x3da7df3a	0.08196874
221	0x3dd0ef13	0.1020185
222	0x3e31905e	0.17340228
223	0xbe4b5c25	-0.19859369
224	0x3e32e547	0.17470275
225	0x3d7480a6	0.059693
226	0xbe68161f	-0.22664689
227	0x3cdab9bc	0.026699893
228	0xbc16f471	-0.009213553
229	0x3dac0669	0.0839966
230	0x3d09d7d9	0.033653114
231	0xbdeb0f1b	-0.114774905
232	0xbe09a7b8	-0.13442886
233	0xbdaf2db9	-0.08553643
234	0x3e821cf3	0.25412712
235	0xbe49f498	-0.19722211
236	0x3cf78ad1	0.03021756
237	0xbe1af1f2	-0.15131357
238	0x3e536057	0.2064222
239	0xbe1411e4	-0.1445995
240	0x3d549bd4	0.05190642
241	0xbe690b0e	-0.22758123
242	0x3e219517	0.1577953
243	0xbd1dba7a	-0.038507916
244	0x3bfe7ed2	0.007766583
245	0x3e330d35	0.17485507
246	0xbe164b98	-0.14677274
247	0xbe0e9a6f	-0.13926099
248	0xbe47cc61	-0.19511558
249	0x3e764a20	0.24051714
250	0x3b643886	0.003482373
251	0x3c6d2b10	0.014475599
252	0x3e74b82c	0.23898381
253	0xbcd28ac0	-0.025700927
254	0x3e0406e4	0.12893254
255	0xbd4b2e20	-0.049604535
