data/simulations/gnn_model_updated.pth (torch, 35372 bytes, 6 tensors)

conv1.bias f4 [64]
000000 20 70 8b 3d 06 9e 8f 3d d4 d3 57 3c d5 44 a1 3d
       0.068084955 0.070125625 0.013173062 0.07874457
000010 64 90 8c 3d 4a cf 72 3d 00 00 00 00 00 00 00 00
       0.06863478 0.059279718 0.0 0.0
000020 c5 1a 63 bc 24 4a d1 3d 91 a1 7c 3d 4f b9 0f bd
       -0.013861363 0.10219219 0.06167752 -0.035088833
000030 e9 f0 d0 b9 ed 06 83 3b 91 5d 2c bc 6d c7 a0 bc
       -0.00039852344 0.0039986284 -0.010520355 -0.019626344
000040 c7 45 6a 3d 07 b9 1a 3d 00 00 00 00 47 30 84 3d
       0.05719545 0.037774112 0.0 0.06454521
000050 62 b3 f2 bc 40 02 94 3d 00 00 00 00 6b 0e 92 3d
       -0.029626552 0.07226992 0.0 0.07131656
000060 08 65 71 3d 00 00 00 00 22 5e 0e 3c 4c c7 8f 3d
       0.05893424 0.0 0.008689435 0.07020435
000070 19 b1 2b 3d 26 a2 9e 3d 00 00 00 00 f7 ef bf 3d
       0.04191694 0.07745771 0.0 0.093719415
000080 e2 03 14 3d 36 9b 03 3d d9 83 a9 3d 39 f9 98 3d
       0.036136515 0.032130443 0.08277101 0.074694104
000090 c5 18 56 3d 00 00 00 00 00 b0 58 3d 77 97 6f 3d
       0.052269716 0.0 0.05290222 0.058494058
0000a0 00 00 00 00 93 ae 5d 3d 63 32 f8 3d 08 a0 a5 3d
       0.0 0.054121565 0.121189855 0.08087164
0000b0 ec 6d 39 3d 01 7e 49 3d 19 91 81 bc e2 66 a0 3d
       0.045270845 0.049192432 -0.015816258 0.07832123
0000c0 81 cf 0e 3d f6 29 45 3b 47 09 d3 3d 25 3b 5c 3c
       0.03486586 0.0030084825 0.10304504 0.0134418355
0000d0 ed 27 8f 3d 6a 72 0a 3d 9d d3 bb 3d 45 ce 90 3d
       0.06990037 0.03380052 0.091712214 0.07070593
0000e0 40 05 8e 3d 89 29 77 3d 2a 82 6e 3d 4a 43 5d 3d
       0.06934595 0.060342345 0.058229603 0.05401925
0000f0 00 00 00 00 7e c9 42 3d 20 df 98 3d 59 0d 61 bc
       0.0 0.04755544 0.07464433 -0.0137360925

conv1.lin.weight f4 [64, 7]
000000 ee a8 b2 be 92 57 67 be ad b3 9d be 8b 84 89 be
       -0.34894508 -0.22591999 -0.30801144 -0.26858935
000010 8d 89 fb 3d 59 e0 82 3e e7 ad 07 3b 46 fc 0f bd
       0.12282095 0.2556179 0.002070302 -0.035152696
000020 b7 74 9a 3e bc 6f 3f 3e 32 02 c0 be f2 8a 9c 3e
       0.3016717 0.18694967 -0.37501675 0.30574757
000030 d6 36 05 3e 1c 7e 10 3e fd 8b be 3e 39 00 b5 3e
       0.130092 0.14110607 0.37216178 0.35351732
000040 3c 44 76 3e 3f df 10 3e ca 1e c6 3e 2a 10 a2 3d
       0.24049467 0.14147662 0.38695365 0.07913239
000050 91 e9 27 3e c2 2f 4f be 3a cf 09 be ab 34 44 be
       0.16397692 -0.20233062 -0.13457957 -0.19160716
000060 f5 88 91 be d9 1d 6a be c3 c8 4c be 9b 0a 8e be
       -0.28424802 -0.22862948 -0.1999846 -0.27742466
000070 10 13 cb bd c9 9d 10 be da cb ac be 13 42 2f be
       -0.09915745 -0.1412269 -0.33749276 -0.17115049
000080 17 45 a4 3e b2 3f 59 3e b6 30 82 3e 23 b3 9a 3d
       0.3208396 0.21215704 0.25427788 0.07553699
000090 c9 3a 90 bd 9f 58 21 bd b8 b5 46 be 06 b7 99 3e
       -0.070424624 -0.039391156 -0.19405258 0.30022448
0000a0 82 d2 3f be db 9b 47 be 21 ae 15 be d6 52 85 be
       -0.18732646 -0.19493048 -0.14617206 -0.2603976
0000b0 34 3d a2 bd aa 09 60 3e 12 39 76 3e d8 e8 52 3d
       -0.0792183 0.21878687 0.24045208 0.05149159
0000c0 db 71 91 3e b7 4f 90 3e e3 48 05 be 80 86 30 3e
       0.28407177 0.28185818 -0.13016085 0.17238808
0000d0 50 ec c4 3c 94 1e b5 3d 1c 09 cc 3d e0 f7 c8 3c
       0.024038464 0.08843723 0.09962675 0.024532259
0000e0 8f 39 8a 3e 1b 3b a3 3e 9b 2c 94 be d5 ac bc bc
       0.2699704 0.3188103 -0.2894028 -0.023031631
0000f0 cd 91 9b 3e ef 05 bd bc 30 d0 86 be 74 b8 8b be
       0.30384675 -0.023074118 -0.2633071 -0.27289164
000100 d0 c7 70 3d 09 ba 2a 3d 39 5c 8e 3e 91 81 bb be
       0.058784306 0.041681323 0.27804735 -0.3662229
000110 cb ab a8 be 0f 31 8e be e2 ee 09 3e 24 59 8b 3e
       -0.32943568 -0.27771804 0.13470033 0.27216446
000120 56 31 6a be cd 2d a5 3e 83 b4 10 be 11 7c 6e 3d
       -0.22870383 0.32261506 -0.1413136 0.058223788
000130 73 c1 8c be 2f e8 74 3e 5a 36 7a 3d 6c e1 45 3e
       -0.2749134 0.23916696 0.06108699 0.19324273
000140 de a8 71 3e 74 eb 5a 3d 9f e9 21 be ca 85 6c be
       0.23599574 0.0534472 -0.15811776 -0.23097911
000150 18 da 44 bc 4d da e7 3d 58 dd 4a be 63 98 a3 3e
       -0.012014888 0.113209344 -0.19810998 0.319522
000160 6b 17 91 be db 3e a4 bc 96 8e 2b 3e 76 19 0f 3e
       -0.2833818 -0.020049503 0.16753611 0.13974556
000170 5f 2d 1e bd 6c 4a 63 3e c7 79 8c be 9a 6e 02 bd
       -0.038617488 0.22196358 -0.2743666 -0.03184376
000180 bb 0a fe bd a6 b8 31 be 6d 78 1e 3d e4 e7 de bd
       -0.124043904 -0.17355594 0.038689066 -0.108840734
000190 33 17 3b bd cd ac 3d bd 13 20 66 3d e8 10 9b 3e
       -0.04567642 -0.046307374 0.056182932 0.30286336
0001a0 94 2b 42 be 6c dc 12 be 71 ba 89 bd e7 5e aa 3d
       -0.18961936 -0.14341897 -0.06725014 0.083188824
0001b0 9d 23 78 be c2 d2 c1 bd 47 18 1d be 7d a4 69 be
       -0.24232335 -0.09464027 -0.15341292 -0.22816654
0001c0 6f 16 db bd fb 0c c0 3d 48 40 a3 be 13 47 74 3e
       -0.10697638 0.09377476 -0.3188498 0.23855238
0001d0 d5 56 a3 be d2 41 a3 bd c1 07 7b 3d 57 d6 14 3e
       -0.31902185 -0.079715386 0.06128669 0.14534889
0001e0 5f 40 37 3e 23 7b 3a be 56 fa 81 3e 5a ba 51 be
       0.1789565 -0.18211035 0.25386304 -0.20481244
0001f0 1c bc 9c be 72 05 15 bd c0 81 96 3c 6e 1a ad bd
       -0.30612266 -0.036382146 0.018372416 -0.08452307
000200 d8 76 f1 3d 88 8b bb 3d 80 da 61 3d e0 24 67 bd
       0.11790246 0.09157473 0.05514002 -0.05643165
000210 ca de 71 3e 08 9f bf be 33 ef d0 3d d2 2e 4a bd
       0.23620144 -0.3742602 0.10201874 -0.049361058
000220 1b 7f e2 bd 52 66 ee bd bb ff 29 3e db 18 aa 39
       -0.110594 -0.1164061 0.1660146 0.00032443446
000230 97 0a 9f 3e 77 73 62 be 88 9f 53 3c d9 02 4e 3e
       0.31062767 -0.22114359 0.012916453 0.20118274
000240 3d b6 63 be 82 a0 86 bd 3d 3b c8 3d 99 95 3c 3d
       -0.22237487 -0.06573583 0.09776924 0.046041105
000250 cb a7 a1 3e 77 e3 fb bd b6 17 7e be 59 78 df bd
       0.31573328 -0.12299245 -0.24813733 -0.10911626
000260 ac 7e 88 be 49 97 1a 3d b7 a9 8c 3e 84 58 45 be
       -0.26659143 0.037741933 0.27473232 -0.19272047
000270 30 0d 8a bd a6 e1 61 be d4 30 62 be 62 44 09 be
       -0.067407966 -0.22058734 -0.22088939 -0.13404992
000280 86 1b 74 3e f7 8c 8d 3d 81 00 82 3e eb 85 a8 be
       0.23838624 0.069116525 0.2539101 -0.3291467
000290 c8 99 1a 3e ad f2 42 3e 0a 7f 2d be 49 65 3f be
       0.15097725 0.19037886 -0.16942993 -0.18690981
0002a0 9c 8d cb bd 06 34 81 3e c2 14 91 be fb c8 3d 3d
       -0.09939119 0.25235003 -0.2833615 0.046334248
0002b0 0e 8a 32 3d 76 a6 30 be 0c 59 07 be dc bb 82 3d
       0.04358869 -0.17251 -0.13217562 0.063834876
0002c0 13 41 8c be 00 55 a3 bc ee 35 67 3e 64 d2 df 3d
       -0.27393398 -0.019937992 0.22579166 0.10928801
0002d0 35 ba 94 3e dc 72 99 3d ab 9d 2d 3e 18 7a 40 3e
       0.29048315 0.07492611 0.16954677 0.18796575
0002e0 b7 c2 db bd 39 e8 9a 3e 1c cb 3c be 99 65 09 3c
       -0.10730498 0.30255297 -0.18436855 0.008386039
0002f0 bb d5 9e bd a3 14 5f be ae b6 7d be da 37 8d be
       -0.077556096 -0.21785216 -0.24776718 -0.27581674
000300 d1 4a 1d 3d e5 d4 3d be 27 c4 21 be 60 22 09 bd
       0.03840143 -0.18538244 -0.15797482 -0.03348005
000310 d6 6c 8a bd 7f 71 a1 3e d5 97 d7 bc e7 c6 bb 3e
       -0.0675904 0.31531903 -0.026317516 0.36675188
000320 82 97 23 bd c2 a8 5a be 76 84 43 3e 67 3b 89 bd
       -0.03993941 -0.21353438 0.19093499 -0.06700783
000330 07 18 43 3d 34 8e 75 be cc 4a 1d 3e 16 a8 d4 3d
       0.047630336 -0.23980027 0.15360564 0.10383622
000340 3c 36 39 be 15 02 0d be cd 2a 94 3e ca b6 82 be
       -0.18087095 -0.13770325 0.28938904 -0.25530082
000350 9c 76 f1 3d 1c 0c ed 3d 50 6e 51 3d 0e f4 7d 3e
       0.11790201 0.11574575 0.051130593 0.2480013
000360 86 70 15 3e 5f 26 b1 3d 79 8c 57 bd cf d4 76 be
       0.14593706 0.08649897 -0.0526242 -0.24104618
000370 c1 2d af be 29 97 ab 3e 67 56 4f 3e f3 d9 a1 3c
       -0.34214595 0.33513764 0.20247804 0.019757247
000380 dd 3e 74 be be 76 03 be 1c 9d 95 be 62 ca 84 3e
       -0.23852105 -0.12838265 -0.29221427 0.25935656
000390 5f 0e 09 be 38 9d 23 be f8 78 2b 3e 79 72 54 3d
       -0.13384388 -0.15977943 0.16745365 0.051866982
0003a0 32 fd 94 3e e2 a5 64 3d c2 39 8d 3e 93 6b bd 3e
       0.29099423 0.05582226 0.27583128 0.36996135
0003b0 49 e6 ef 3d c0 12 50 be 33 14 c0 be db 76 45 3e
       0.11713845 -0.20319653 -0.3751541 0.19283621
0003c0 a2 54 99 3d a9 27 a4 3e b8 6d c0 be 6c a3 de bd
       0.074868456 0.32061508 -0.3758371 -0.10871014
0003d0 ae 00 86 be 28 97 b1 be 47 fd a2 bc f5 88 2e be
       -0.26172394 -0.34685636 -0.019896163 -0.17044432
0003e0 b0 0c 9c be a9 da 76 be d7 37 82 be a3 73 54 3e
       -0.3047843 -0.2410685 -0.25433227 0.20747237
0003f0 74 04 60 be 0d 1f 06 be ce a6 73 be f3 05 4f be
       -0.21876699 -0.13097782 -0.237941 -0.20217113

conv2.bias f4 [64]
000000 68 bb 8e bb 00 00 00 00 10 d0 9d 3d 00 00 00 00
       -0.0043558367 0.0 0.077057004 0.0
000010 c4 35 d4 3c 93 26 e5 bb 07 d8 64 3d 00 00 00 00
       0.025904544 -0.006993124 0.055870082 0.0
000020 08 26 08 3d 80 64 cb 3b f5 b6 dd bb 14 de 13 bc
       0.033239394 0.006207049 -0.006766195 -0.0090251155
000030 b7 c4 e4 3c 84 71 3d 3d 00 00 00 00 fe 31 13 3d
       0.027925832 0.046250835 0.0 0.03593635
000040 10 58 3c 3d 9f a3 3a 3d 64 1b 01 3c 00 00 00 00
       0.04598242 0.045566197 0.007880066 0.0
000050 df 63 18 3d 85 f8 0c bc c6 f7 72 3c 00 00 00 00
       0.03720462 -0.008604174 0.014829582 0.0
000060 52 2c 93 3d a3 cc 16 3d 75 1c 05 3c 4b 9c 59 bc
       0.07186188 0.03681625 0.0081244605 -0.013281892
000070 61 a7 88 3c 36 b6 e3 3c 45 20 89 3d 05 1f 64 3d
       0.016681375 0.027796846 0.06695608 0.055693645
000080 03 fa 3e 3d 00 00 00 00 00 00 00 00 6c 0a 43 3d
       0.04662515 0.0 0.0 0.04761736
000090 00 00 00 00 ff a9 12 3d 9a 54 73 3d f2 60 92 3b
       0.0 0.035806652 0.059406854 0.004467123
0000a0 be 4e 1a 3d d4 da ec bb ca 2d 54 3b 19 03 62 3d
       0.03767275 -0.007228235 0.0032375925 0.055178735
0000b0 67 5b 39 3d 59 54 80 3d f0 e5 8f 3d 27 9d b3 3c
       0.045253184 0.06266088 0.07026279 0.021925522
0000c0 7a 96 4d 3c 93 05 ec 3c 80 77 a2 bc 5d c2 1c bc
       0.012548083 0.028811252 -0.019832373 -0.009567824
0000d0 b8 bc 82 bb 74 1f a4 3b f1 13 0c 3d 82 95 df 3c
       -0.003989782 0.0050086323 0.034198705 0.02729297
0000e0 18 eb c2 3c 22 74 34 3d bb 82 7a bb 03 d4 b7 3c
       0.023793742 0.044056065 -0.0038224894 0.022439962
0000f0 19 bf 15 3d 8c e5 eb 3c 54 c7 96 3d 36 b5 29 3d
       0.036559198 0.02879598 0.073622376 0.04143258

conv2.lin.weight f4 [64, 64]
000000 92 ad 5d 3e 77 a8 d6 bd 52 11 ec bd 35 ad e6 3c
       0.21648243 -0.10481351 -0.11526741 0.028158763
000010 57 a0 09 be 82 f4 55 3d 00 e0 98 37 3a fa 5c be
       -0.13440071 0.052235134 1.822412e-05 -0.21579829
000020 37 f4 25 be 0b 72 1d 3e d0 06 ac bd 28 4b c3 bc
       -0.16206442 0.15375535 -0.08399737 -0.023839548
000030 08 d7 b3 3c f1 67 36 3c f9 59 da 3d 35 f5 07 be
       0.02195312 0.01113318 0.10661692 -0.13277133
000040 22 b4 23 be 4a b9 7d bc 78 d8 94 bc 1a a2 12 3e
       -0.15986684 -0.015486071 -0.018169627 0.1431965
000050 28 95 08 bd c6 5e 5f be 81 d5 23 3e 2c c8 aa 3d
       -0.03334537 -0.21813497 0.15999414 0.08338961
000060 32 bc 3c be ee 5e f4 3d 31 f5 ce ba 78 ee a9 3c
       -0.18431166 0.11932169 -0.0015789625 0.020743594
000070 7b 56 8b 3d 2b d9 59 be cc 2d 23 bd 63 cb 64 bd
       0.06803604 -0.2127425 -0.039838597 -0.055858027
000080 1c 46 2e be 91 d2 15 3e 53 75 fe bd ff cf 10 3e
       -0.17018932 0.14631106 -0.124247216 0.14141844
000090 2e 0c 57 3e 99 6c e5 bd 2e 11 e2 3d 95 fd 07 3e
       0.2100074 -0.11202354 0.11038433 0.13280328
0000a0 c7 d2 18 3e d9 83 69 bd 59 14 2b 3c c2 a3 69 3e
       0.14924155 -0.057010505 0.010441863 0.22816375
0000b0 62 ef b3 3c 87 0e 85 3d de 87 32 be a2 d2 e4 bd
       0.021964733 0.064969115 -0.17434642 -0.111729875
0000c0 bd a6 41 be 32 f8 4a 3e 69 40 a3 3d 0a a5 61 3e
       -0.18911262 0.19821241 0.0797127 0.22035614
0000d0 f4 30 8f bc f0 c0 8d bd 2c 5f 21 be 8a c1 2b be
       -0.017479397 -0.069215655 -0.15758961 -0.16773048
0000e0 b7 4e 3e be 1a 0c 74 bc 4b c0 24 3c 3a a6 3f 3e
       -0.18584715 -0.014895463 0.010055612 0.18715754
0000f0 b2 0c 95 3d e6 d6 d7 bd 3a ee 37 be 15 10 1b be
       0.07277812 -0.105390355 -0.1796197 -0.15142854
000100 a0 34 18 be e8 bd 18 bd 97 aa 1f 3e f3 3f 42 be
       -0.14863825 -0.037290484 0.15592419 -0.18969707
000110 38 5f 56 be bd 66 38 3e ff b5 e8 bd 79 d2 0f 3e
       -0.2093476 0.18007942 -0.11362838 0.14045133
000120 56 a8 aa 3d 59 78 0c 3e bc d6 81 bd 7b bb 1a 3e
       0.08332889 0.13717784 -0.063397855 0.1511058
000130 7b 02 3e be fc 73 90 bd a8 fe f2 bc 98 90 8e bc
       -0.18555634 -0.07053372 -0.029662445 -0.017402932
000140 e7 df 37 be 9c b1 4e bd 61 07 4e 3e 6e 67 a5 3d
       -0.17956506 -0.05046235 0.20120002 0.08076368
000150 97 81 25 be d7 b4 46 3e fc 01 24 3d 88 14 9c bd
       -0.16162716 0.19404922 0.040040955 -0.076211035
000160 30 0c 7a bc f2 6f 08 be 10 5c 18 be 08 2b 78 bd
       -0.015261695 -0.13323954 -0.14878869 -0.060587913
000170 8c dd 7d 3d a4 ff 67 bd 40 4d aa 3b ea 28 8e bd
       0.06197886 -0.056640282 0.005197197 -0.069413975
000180 c2 90 1b be 46 73 da 3d 80 9d ea ba 13 3d 1c 3e
       -0.1519194 0.10666518 -0.0017899722 0.15257673
000190 0e 81 8d 3d f7 1b 12 3e 35 c3 18 3e 1e 08 09 be
       0.06909381 0.1426848 0.14918216 -0.13382003
0001a0 c3 d4 09 3e 03 86 4c 3e ce 09 3b be 4a bf 4a be
       0.13460068 0.19972996 -0.18265459 -0.19799533
0001b0 a2 28 2a be 90 02 ed 3c fb ea 58 3e 40 57 2c bb
       -0.16617063 0.028931886 0.21183388 -0.0026297122
0001c0 eb d9 09 be ec 46 63 bd b5 11 d1 bd 78 47 53 be
       -0.13462035 -0.05548756 -0.102084555 -0.20632732
0001d0 d4 a4 04 be 69 cf 29 3e 40 5e e2 3c 6b 27 24 3e
       -0.12953502 0.16583027 0.027632833 0.16030662
0001e0 c3 ae d7 bd 44 77 71 bd 6c 9c aa bd d4 0c 78 3d
       -0.1053138 -0.05895163 -0.08330616 0.06055911
0001f0 9e 9a aa 3d e6 a4 f9 bd 1e 68 b3 3d e4 51 7d 3d
       0.08330272 -0.12189655 0.08760093 0.061845675
000200 8a a3 ac 3d 3a d1 e0 3d d8 29 49 be 6c b2 a4 3e
       0.0842963 0.10977407 -0.19644868 0.32167375
000210 49 4f 77 3d 83 7e cd bc c5 0c 2c 3e 73 3f 47 3e
       0.060378347 -0.02508474 0.16801746 0.19457798
000220 bd 8c 1a be 54 8b 49 3d 36 fb 2f be af 0e 5a be
       -0.1509275 0.04920514 -0.17185673 -0.21294664
000230 ad 8f 45 bd 82 e2 55 bb c0 6a b6 bc 7b 84 f6 bd
       -0.048232723 -0.003263623 -0.0222677 -0.120369874
000240 b1 33 2b 3e 36 cc 12 be e4 89 29 be ac 3f 3c 3e
       0.16718937 -0.14335713 -0.16556507 0.18383664
000250 e8 46 e9 bc 8c 11 b5 3c a0 c1 91 bb 09 90 ac bc
       -0.028476194 0.022103094 -0.0044481307 -0.021064775
000260 f1 a7 5e 3e 28 88 cc bc e6 db 8b bb c6 c6 8a bd
       0.21743752 -0.024967268 -0.0042681573 -0.06776194
000270 99 d6 68 be 2a d0 b0 3c 5a 0d ac 3d 98 bb 39 3e
       -0.22738113 0.021583635 0.08400984 0.18137968
000280 6e 38 55 3e 6e 0e 2c be 62 06 be bd 4c d0 3f 3e
       0.20822307 -0.1680238 -0.09278561 0.18731803
000290 eb 05 7e 3d 3c cd 21 be 8a a9 af 3d 1c 84 7b bd
       0.062017363 -0.15800947 0.08577259 -0.061405286
0002a0 9b 4f 28 3e 57 39 fb 3d 25 86 1b be 3a 92 12 3e
       0.16436617 0.12266796 -0.15187891 0.14313594
0002b0 b4 43 13 bc 3e d6 e9 3d d5 4f de bd 72 43 8b be
       -0.00898831 0.114178166 -0.108550705 -0.27199894
0002c0 d0 7f 67 3e c1 b3 49 be b8 40 c2 3c 6c 39 13 3d
       0.2260735 -0.19697477 0.0237125 0.035943434
0002d0 ed e7 2a 3e bc 62 1b 3d 06 26 05 be 4d 92 4f 3e
       0.16690035 0.037935957 -0.13002786 0.20270653
0002e0 36 e2 e1 bb 61 0f aa 3c 25 3c 84 bb 80 2a b5 3d
       -0.0068934215 0.020759286 -0.00403549 0.08845997
0002f0 c9 86 22 3e 65 a7 f4 bd 87 dc ee bd 63 e2 22 3e
       0.15871729 -0.119459905 -0.11663156 0.15906672
000300 c8 e8 07 bd df 6e 51 3e 5e e2 db 3d 40 96 68 bd
       -0.033180982 0.2045245 0.107365355 -0.056783915
000310 52 a0 1a be ca 47 ef bd ee 98 94 3d d1 d9 35 3e
       -0.1510022 -0.116836146 0.072557315 0.17758872
000320 20 81 4e bc 64 21 2f 3d 61 7e 49 be 28 19 89 bd
       -0.012604028 0.042756453 -0.19677116 -0.06694251
000330 79 8c 31 3e d5 97 53 be 95 fe 29 3e e3 38 ec bd
       0.17338742 -0.20663388 0.16601022 -0.11534288
000340 64 07 15 be f4 5c 20 3d eb 24 38 3e 2e ea cf 3d
       -0.145536 0.039151147 0.17982833 0.10152088
000350 5e 38 fe 3d 84 82 7d 3d 39 cf 5c 3e fb 00 5c be
       0.12413095 0.061892048 0.21563424 -0.21484749
000360 b9 bb 5a 3e b6 6f a6 3d a8 8b 97 bc 54 fe 2e be
       0.21360673 0.08126776 -0.01849921 -0.17089206
000370 6a 65 27 be 10 1a 4e bc d8 ad 0f be a0 74 7a bd
       -0.1634728 -0.012579456 -0.1403116 -0.06114638
000380 58 ec 4d be 52 6b 19 be 3f e8 17 3e 0a ef 3c be
       -0.20109689 -0.14982346 0.14834689 -0.18450561
000390 e4 e6 0b be 8d 02 0a 3e c4 ba 10 bd 58 f7 07 be
       -0.13662297 0.13477536 -0.035334364 -0.13277948
0003a0 91 2d 00 be 11 e2 02 3e 6f ea 39 be 72 44 d8 3d
       -0.12517382 0.1278155 -0.18155836 0.1055993
0003b0 75 b3 43 3e 4f c4 3a be e5 9e 53 be 69 cc 07 be
       0.19111426 -0.18238948 -0.20666082 -0.1326157
0003c0 80 79 3a 3b 0f 45 09 3e 54 60 5f 3d 69 75 e6 bd
       0.0028453767 0.1340525 0.054535225 -0.11252863
0003d0 c0 aa de 3c b4 8d 3e be b7 88 c3 bd db fb 36 3e
       0.02718103 -0.18608743 -0.09547561 0.17869513
0003e0 a3 6d 36 be 6c 42 21 bd 51 38 01 3e 00 80 f3 b9
       -0.1781526 -0.039369985 0.12619139 -0.0004644394
0003f0 94 2c 53 be c4 9c 61 3d e0 62 38 bd 43 9f 24 3e
       -0.20622474 0.055081144 -0.04501617 0.16076379

fc.weight f4 [18, 192]
000000 94 85 5f bd f0 c7 08 3e 07 f2 42 3e 98 f9 91 bc
       -0.05457075 0.1335752 0.19037639 -0.01781921
000010 8e fe ac 3c fd 10 bf 3c 29 3c fa bd 98 9d fc bd
       0.021117475 0.02332353 -0.12218506 -0.12334746
000020 21 43 25 be 32 38 ee 3d 0a b4 7e bd dd 01 b2 bc
       -0.16138889 0.11631812 -0.062183417 -0.021729404
000030 52 63 16 bc 04 a8 3b bd fd 02 07 be f6 99 ff bd
       -0.009178953 -0.04581453 -0.13184734 -0.124805376
000040 04 38 c8 3d a5 02 e2 3d 9b 10 2c be e0 84 ed 3d
       0.09776309 0.11035661 -0.1680321 0.115976095
000050 0a e4 c3 bb c2 64 0d 3e 6f 22 87 3d 20 ae cb bc
       -0.005978112 0.13807967 0.065983646 -0.024863303
000060 ce e6 a3 bd 05 8b 8e bd cd dc 5b 3c 34 50 f9 bd
       -0.08003007 -0.069601096 0.013419342 -0.12173501
000070 83 15 63 3d d8 21 2f 3e 77 0c d6 3d 11 01 e9 bd
       0.055440437 0.17102754 0.10451596 -0.113771565
000080 76 2c 08 be 48 b9 93 3d da 6e 10 3e 81 f0 ab 3d
       -0.1329821 0.07213074 0.14104787 0.08395482
000090 04 80 04 be 55 ca 16 3e cd cb e5 3c 6d 32 41 3d
       -0.12939459 0.14725621 0.028051281 0.04716723
0000a0 be d2 b1 3d 24 4c bd 3c 35 4a d9 3b 45 30 a5 3d
       0.08682774 0.023107596 0.0066311606 0.08065847
0000b0 64 c2 19 be de 3c c8 3d 7d 52 1e 3e ff 1c 92 3d
       -0.1501556 0.097772345 0.15461154 0.07134437
0000c0 52 b6 7b bc a0 46 45 3d 90 fe de 3d e1 58 10 be
       -0.015363293 0.048163056 0.10888398 -0.14096405
0000d0 8f 30 d1 3d b0 41 3d 3e a8 87 49 3d df 34 05 3d
       0.1021434 0.18482089 0.049201638 0.032521125
0000e0 94 2c f6 bc 50 aa a1 3d af 64 25 be 52 75 19 bd
       -0.030050553 0.07893813 -0.16151689 -0.0374654
0000f0 c1 69 8a 3d df 63 5b 3c eb dd 04 3e 9c 42 d9 bd
       0.06758452 0.01339051 0.1297528 -0.10608408
000100 b9 73 c9 3d 60 b8 5d 3d 35 e2 6e 3e fa a2 02 3e
       0.098365255 0.05413091 0.23328479 0.12757483
000110 0b 39 02 be 5f 02 08 be de a7 28 bd 58 6b 69 3d
       -0.12717073 -0.13282155 -0.041175716 0.056987137
000120 86 e7 fd bd ce a3 2a 3d cf 54 b7 bd 67 6b 6f 3d
       -0.12397675 0.041660123 -0.08951723 0.058452036
000130 c4 80 6b bd b0 f3 0e be 08 88 e9 3d 17 e8 ca 3d
       -0.057495847 -0.13960147 0.11402899 0.09907549
000140 b6 58 27 be f0 de 3a bd 91 9d 3d be 2f 82 86 bd
       -0.16342434 -0.045622766 -0.18517138 -0.06567799
000150 7f 81 9f bd 6e b3 9c bd a0 29 cd bd 0c fd 2b 3e
       -0.07788371 -0.07651411 -0.10017705 0.16795748
000160 06 19 a0 bc 4d 60 e4 bd 48 37 cb 3d 0d 33 01 bd
       -0.019543182 -0.111511804 0.099226534 -0.031542826
000170 1a 20 3a 3e 92 b8 f9 3b 80 cc 88 bd c8 b9 ed 3d
       0.18176308 0.0076208794 -0.0667963 0.116077006
000180 ee a3 a4 3d c4 1b d6 3d b1 3a 9d bd 0f 3f c0 bc
       0.080390796 0.104545146 -0.0767721 -0.023467569
000190 26 99 11 3e 35 20 da 3d 35 99 2c 3d 9b a4 ae bd
       0.14218578 0.10650674 0.042138297 -0.0852749
0001a0 b2 df 0e 3e 2a cb 82 3b 4e e1 c7 3d c3 ce 34 bd
       0.1395252 0.003991504 0.0975977 -0.044142496
0001b0 b5 79 1c bd 93 9d 91 3d e0 a5 2b 3d d8 cd 04 be
       -0.038202006 0.07110133 0.041906238 -0.12969148
0001c0 90 9f a0 3d 52 f7 e0 3d 12 4e f9 bd 4c 8e 23 be
       0.07842934 0.109846726 -0.12173094 -0.1597225
0001d0 57 c2 a5 3d 15 ec 2e 3e 17 f3 8c bd 25 2c 11 bd
       0.08093708 0.17082246 -0.06882303 -0.03544249
0001e0 2f c4 4a 3e a3 27 43 3d 1f 30 59 3c d2 df 0d 3e
       0.198014 0.047645222 0.013256102 0.13854912
0001f0 95 c7 9e bd af 20 79 3d 0f 22 47 3e 2b c2 be bd
       -0.07752911 0.060822185 0.19446586 -0.09314378
000200 99 07 ae bd 80 b7 c6 3a 34 b9 c7 3d a4 46 d8 3d
       -0.08497543 0.0015160888 0.097521216 0.10560349
000210 79 5f 98 3d a7 cf 98 bd e5 6a c7 3d 6c 90 db 3d
       0.07440085 -0.074614815 0.097371854 0.10720906
000220 14 18 d1 bc 94 81 64 bd e6 d0 9b 3d ca dd 14 3e
       -0.025524177 -0.055787638 0.076082036 0.14537731
000230 9b 96 a4 3d 83 08 02 be a6 f0 98 3d 4f ec 85 bc
       0.08036538 -0.1269856 0.07467775 -0.016348032
000240 00 01 fe 3d d3 cd 10 be 5b cf d3 3c e0 8b 7f 3d
       0.124025345 -0.14141016 0.02585571 0.062389255
000250 d6 59 3a bd 64 84 98 bd dd e3 1e 3e af b5 c3 bd
       -0.04549583 -0.074471265 0.1551661 -0.09556138
000260 5d e0 f9 bd 6d 71 0f be 70 fb 87 3d b7 c4 13 be
       -0.12200997 -0.14008112 0.06639755 -0.1443051
000270 d6 71 0f 3e 48 0f 4a bc 32 3c 19 be 86 e4 cb bd
       0.14008269 -0.012332745 -0.14964369 -0.09955697
000280 8b 7d 29 3d 78 b0 ff bd c4 47 d5 3d 43 84 77 3d
       0.041379493 -0.124848306 0.10414079 0.06042887
000290 40 8e 9f bb 55 d1 c1 3d b1 18 82 bd 9d 3b ee bd
       -0.0048692524 0.09463755 -0.06352366 -0.11632464
0002a0 85 2d 2f bc 8f 4e 87 bd d1 f4 1b 3e a6 f1 f8 3c
       -0.010692005 -0.06606781 0.15230109 0.030388664
0002b0 5e 36 71 bd 76 72 27 3e 84 19 dc bd b4 27 c9 3c
       -0.05888974 0.16352257 -0.10747054 0.024555065
0002c0 22 f7 16 3d 7f e2 3d 3e b9 7a c6 bd a4 f0 b4 bd
       0.036856778 0.18543433 -0.09691376 -0.08834961
0002d0 79 bf 8b 3d 7c 46 cd bd b3 42 56 bd 83 f1 dd bd
       0.0682363 -0.100232095 -0.052309703 -0.1083708
0002e0 9f 0a 2c 3e 22 8f 25 be 84 96 c5 bd 49 52 84 bd
       0.16800927 -0.16167882 -0.09647849 -0.06461007
0002f0 3e 55 2b be 4e 51 07 3d 73 7d cd 3c 5f 91 c7 bc
       -0.16731736 0.033036523 0.025084233 -0.02436131
000300 e6 c0 da bc 3e 79 f5 bd 86 8f 10 3e 50 78 fc bc
       -0.02670331 -0.11986016 0.1411725 -0.030819088
000310 54 fb c4 bd bf fa c7 3d 31 80 2c 3e 48 02 3f 3d
       -0.096182495 0.09764623 0.16845776 0.046633035
000320 8f a8 00 3e 0b 7c 45 3e 73 cd b3 bd c0 8c 0a bd
       0.125643 0.192856 -0.08779421 -0.033825636
000330 c1 a6 8d bd fd bf 33 3e a4 2f 15 be e5 af 2b 3d
       -0.069165714 0.17553706 -0.14568955 0.041915793
000340 02 f0 a7 3d e5 64 00 be a0 6f 4b 3c f7 9f 94 bd
       0.08200075 -0.12538488 0.01241675 -0.072570734
000350 c5 86 11 be 62 78 23 bc bb c5 58 3d 60 1e 65 3c
       -0.14211567 -0.009977432 0.052922945 0.013984293
000360 b8 30 78 3e 70 23 05 3e 5b 32 f4 3d 43 64 fa 3d
       0.24237335 0.130018 0.11923667 0.12226155
000370 20 c2 8f bd ad a1 30 3e ce dc c6 3c 97 2b 11 3e
       -0.07019448 0.17249174 0.02427521 0.14176784
000380 85 11 3b 3c 64 a2 be 3d 5e 28 21 be 54 46 43 3e
       0.011417751 0.09308317 -0.15738055 0.19069797
000390 68 87 fe bd d3 d4 ff bd 14 2c 85 bd 02 0e cc b9
       -0.124281704 -0.12491765 -0.06502548 -0.0003892035
0003a0 76 7f 47 3e b2 86 85 3d 11 4b 92 3a d5 ac 3c 3e
       0.19482216 0.06519832 0.0011161288 0.18425305
0003b0 b6 54 cf bd 5e 58 9c 3d 90 13 27 bd 71 d6 2f 3e
       -0.10123579 0.07634042 -0.04079014 0.17171647
0003c0 c5 ef 43 3d 8f e1 ce 3d a0 09 7e bd ad e6 54 bc
       0.047836084 0.10101616 -0.062020898 -0.0129944505
0003d0 10 3f 99 bc 0d 1c f2 bd 4d 78 02 3e 8a e3 f2 bc
       -0.018706828 -0.118217565 0.12741204 -0.029649515
0003e0 4a 5b 87 3c 3c 4d eb 3d a9 d1 e7 bd ff 27 a1 3d
       0.016523022 0.11489341 -0.113192864 0.07868957
0003f0 2d 06 a7 3d 59 b1 16 3e 3b 59 03 be 06 2d 1e 3e
       0.08155475 0.1471609 -0.12827007 0.15446863

fc.bias f4 [18]
000000 11 5a 1f bd 04 9c 15 3d 0e bc 57 3d 48 f8 ca bb
       -0.038904253 0.03652574 0.052669577 -0.006194148
000010 07 a9 d0 bc b3 a1 74 bc 91 40 08 bd 17 86 81 bd
       -0.025471224 -0.01493113 -0.0332647 -0.06324404
000020 dd bd 6c bb ef 4c 48 3d 75 ee 9c bd a3 a6 62 bd
       -0.003612391 0.048901495 -0.076626696 -0.0553347
000030 8c 09 84 bd 47 6f be 3c 68 46 00 3d f2 d6 01 3d
       -0.064471334 0.02324642 0.031317145 0.03169913
000040 9d 80 c4 3c 35 d3 29 3d
       0.023987109 0.04146119
