data/simulations/gnn_model_with_validation.pth (torch, 35580 bytes, 6 tensors)

conv1.bias f4 [64]
0.0 0.022028638 -0.009567413 0.042251762 -0.009785727 -0.018497085 0.02738856 0.06723274
0.0 0.029601866 0.051691137 0.045999736 0.028638301 0.058236625 0.05415741 0.04018794
0.0 0.05437553 0.037748933 0.066954 0.054455195 0.038780186 0.018775724 0.0
0.0 0.003945995 0.034027997 -0.0049170535 0.0555723 0.049436748 0.07050744 -0.018226273
0.06639461 -0.012151426 0.06273675 0.05193332 0.10950367 0.090101175 0.043907613 -0.004364206
0.07373281 0.0 0.046464816 0.06089256 -0.00975403 0.031651713 0.0 0.07745455
0.056702707 0.10196622 0.10113723 0.0 0.058222063 -0.0011042894 0.082439 -0.031982843
0.0 0.06172826 0.059378915 0.08498199 0.025202535 0.0014187788 0.05785145 0.06153211
00000000: 0000 0000 6775 b43c a3c0 1cbc 2f10 2d3d
00000010: 5054 20bc 3387 97bc f95d e03c 52b1 893d
00000020: 0000 0000 9d7f f23c 16ba 533d 386a 3c3d
00000030: df9a ea3c 8789 6e3d 29d4 5d3d 1c9c 243d
00000040: 0000 0000 e0b8 5e3d a09e 1a3d 2e1f 893d
00000050: 690c 5f3d f9d7 1e3d 8ccf 993c 0000 0000
00000060: 0000 0000 684d 813b f160 0b3d 3c1f a1bb
00000070: c89f 633d 307e 4a3d 3466 903d 444f 95bc
00000080: e6f9 873d c616 47bc 207c 803d 08b8 543d
00000090: 7643 e03d f786 b83d 78d8 333d 9d01 8fbb
000000a0: 3a01 973d 0000 0000 e451 3e3d 7a6a 793d
000000b0: 5ecf 1fbc 3aa5 013d 0000 0000 7ea0 9e3d
000000c0: 1941 683d aad3 d03d 0921 cf3d 0000 0000
000000d0: 427a 6e3d cebd 90ba c7d5 a83d 7100 03bd
000000e0: 0000 0000 c6d6 7c3d 4e37 733d 0a0b ae3d
000000f0: 8c75 ce3c 51f6 b93a a4f5 6c3d 1809 7c3d

conv1.lin.weight f4 [64, 7]
-0.121004924 -0.16297202 0.18947804 -0.11004493 -0.21814644 0.052812397 0.2422339 -0.018580731
-0.090000466 -0.21592453 0.35012892 0.09079368 -0.15981011 -0.107175656 -0.012326449 -0.21116866
0.19690618 0.2511235 -0.011869414 -0.17703953 -0.2776665 -0.2492413 0.14661738 -0.077718586
0.39183837 -0.3184163 0.17356586 0.04036301 0.13045304 -0.16385368 -0.065617494 0.012720466
0.02915128 0.2387043 0.21570458 -0.05750012 -0.20897624 -0.04541887 0.11331696 0.007629179
-0.22464 -0.05372833 0.11477207 0.22675203 -0.22931498 -0.32677892 0.105236754 0.18965533
0.08104061 -0.27685004 0.040424205 -0.23452473 -0.1565993 -0.01749439 0.13018945 -0.28843573
0.25841662 -0.22577113 -0.14158869 -0.017182529 -0.09861575 0.21159455 0.22634426 -0.06447799
-0.023172753 -0.18199648 0.25351027 0.16671291 0.10894828 0.27530634 -0.27565295 0.09081297
0.044540778 0.43650272 -0.015711393 -0.24008484 0.2775346 0.08285107 0.045445584 -0.03361449
0.255588 -0.0330695 -0.0429751 -0.094872825 0.1645183 0.26339236 0.16007969 0.2279659
-0.0780845 -0.1945783 -0.13923617 -0.38134062 0.15025716 -0.18571486 0.38743815 -0.3145716
-0.19596225 -0.1951207 0.028603416 0.2611896 0.12681958 -0.33992675 -0.03886994 -0.0061322385
0.051576883 0.086280204 0.0603719 0.052445546 0.29923722 0.19312255 -0.29348585 -0.021032618
0.281971 -0.015600681 0.081453055 -0.10824187 -0.15947187 -0.23321079 -0.15872943 -0.024959208
0.3282456 -0.19330731 0.086549975 0.026435446 0.09442694 0.2511988 0.22783877 0.06801399
-0.30939716 0.107298434 0.04930018 -0.2031561 -0.22764505 0.063383475 -0.12604688 -0.33571684
-0.0583211 -0.114688575 0.28404883 -0.20662059 0.118716575 0.28030136 -0.27708036 -0.317904
-0.0255059 -0.0689555 0.00037659425 -0.108869895 -0.004940519 -0.15990478 -0.19324403 0.044392437
-0.19650465 -0.048047632 -0.3549017 -0.087448746 -0.19322307 0.30340093 -0.03259 -0.29028684
0.093269356 0.10900232 -0.21046044 0.16001543 -0.04640436 -0.19582865 -0.1260598 0.20389348
0.230943 -0.15880159 0.12273443 0.04822576 0.01393643 -0.16722566 0.2894694 -0.10559968
0.05378765 0.13756262 0.17523994 0.2095376 -0.09890034 0.10340237 -0.038358092 0.2421443
0.16400938 -0.29745942 0.24568251 -0.28829053 0.21691857 0.11049996 0.030104868 0.17218171
0.07623443 0.113189645 0.26232052 0.2528724 0.04665307 0.108165346 -0.29453534 0.23008126
0.18475832 -0.088209815 0.006918681 -0.033451088 0.22722037 -0.050810356 -0.23132706 -0.049802322
-0.30048245 -0.013654507 0.058436554 0.27768052 0.1962749 0.35318547 -0.30907068 -0.30679616
0.14922261 0.24761213 0.20833991 -0.082466945 0.25334543 -0.060601883 -0.10212564 0.17961816
-0.22727787 -0.037702292 -0.21663098 0.25881207 0.13409331 0.09977621 0.10440262 -0.122857615
-0.22703116 -0.059395075 0.033886723 -0.1251978 -0.25272793 0.23287052 -0.21576323 -0.0058211577
-0.3108126 -0.3557621 -0.06552193 0.047777988 0.27210942 -0.14904276 -0.2107676 -0.28895938
0.29172665 -0.007462938 0.20619076 -0.16822958 -0.30496588 -0.18983498 -0.18129115 0.22695294
00000000: 6ed1 f7bd 23e2 26be 8806 423e 3c5f e1bd
00000010: c861 5fbe d051 583d 2a0c 783e 9e36 98bc
00000020: 2a52 b8bd 521b 5dbe 1944 b33e 09f2 b93d
00000030: 43a5 23be e97e dbbd e0f4 49bc 993c 58be
00000040: c6a1 493e 4293 803e ee77 42bc da49 35be
00000050: 4e2a 8ebe 1d39 7fbe de22 163e ec2a 9fbd
00000060: 0a9f c83e 7607 a3be 40bb 313e af53 253d
00000070: 7b95 053e 42c9 27be 7762 86bd 8069 503c
00000080: aace ee3c e66e 743e a9e1 5c3e 3f85 6bbd
00000090: defd 55be 2309 3abd b912 e83d 31fe f93b
000000a0: 0708 66be 3d12 5cbd 9e0d eb3d af31 683e
000000b0: 8cd1 6abe 914f a7be 5e86 d73d 0235 423e
000000c0: 9ff8 a53d 4abf 8dbe da93 253d 4027 70be
000000d0: 915b 20be 6550 8fbc 6250 053e d9ad 93be
000000e0: 2f4f 843e 8c30 67be a0fc 10be 60c2 8cbc
000000f0: 0ef7 c9bd 3eac 583e cac6 673e 090d 84bd
00000100: c9d4 bdbc 495d 3abe 19cc 813e cab6 2a3e
00000110: 4720 df3d f4f4 8c3e 6222 8dbe 27fc b93d
00000120: 6470 363d 497d df3e 2eb5 80bc cdd8 75be
00000130: 0419 8e3e d2ad a93d 2625 3a3d 59af 09bd
00000140: 6edc 823e e273 07bd a906 30bd af4c c2bd
00000150: 7c77 283e 5ddb 863e eeeb 233e e56f 693e
00000160: c4ea 9fbd 893f 47be ed93 0ebe 143f c3be
00000170: 03dd 193e 092c 3ebe 4b5e c63e 870f a1be
00000180: 54aa 48be b9cd 47be b651 ea3c a5ba 853e
00000190: fedc 013e e10a aebe 1636 1fbd f2f0 c8bb
000001a0: 4842 533d adb3 b03d 8748 773d 24d1 563d
000001b0: 9f35 993e ebc1 453e c743 96be 994c acbc
000001c0: 815e 903e 009a 7fbc dcd0 a63d eaad ddbd
000001d0: 984c 23be cfce 6ebe f889 22be 4177 ccbc
000001e0: cf0f a83e 5af2 45be 1d41 b13d 268f d83c
000001f0: e962 c13d 219d 803e 914e 693e eb4a 8b3d
00000200: 4e69 9ebe 48bf db3d fcee 493d 2708 50be
00000210: c91b 69be 32cf 813d 6f12 01be 14e3 abbe
00000220: 1be2 6ebd d8e1 eabd d96e 913e 5994 53be
00000230: ad21 f33d a983 8f3e 7add 8dbe 50c4 a2be
00000240: c0f1 d0bc 8b38 8dbd a071 c539 2ef7 debd
00000250: 14e4 a1bb 14be 23be c3e1 45be d8d4 353d
00000260: 8438 49be 98cd 44bd adb5 b5be 5418 b3bd
00000270: 45dc 45be 5e57 9b3e 187d 05bd 7aa0 94be
00000280: 0104 bf3d 9c3c df3d f182 57be 16db 233e
00000290: 8012 3ebd 4e87 48be d215 01be 74c9 503e
000002a0: 527c 6c3e e29c 22be 305c fb3d 6088 453d
000002b0: a055 643c 343d 2bbe 5535 943e a544 d8bd
000002c0: 7050 5c3d 37dd 0c3e 1972 333e 0691 563e
000002d0: 438c cabd 9fc4 d33d 601d 1dbd adf4 773e
000002e0: 13f2 273e 9a4c 98be 3294 7b3e d19a 93be
000002f0: e71f 5e3e ce4d e23d 7c9e f63c 6750 303e
00000300: cc20 9c3d f9cf e73d e04e 863e 7e78 813e
00000310: 4a17 3f3d cb85 dd3d 56cd 96be 6c9a 6b3e
00000320: 4931 3d3e 59a7 b4bd 1ab6 e23b 0204 09bd
00000330: 75ac 683e 851e 50bd 00e1 6cbe 85fd 4bbd
00000340: d6d8 99be 27b7 5fbc 2b5b 6f3d 242c 8e3e
00000350: 4afc 483e bad4 b43e 833e 9ebe 6314 9dbe
00000360: d0cd 183e 098e 7d3e 0f57 553e 6ee4 a8bd
00000370: 7eb6 813e ae39 78bd 3f27 d1bd d3ed 373e
00000380: 88bb 68be b86d 1abd 83d4 5dbe 0483 843e
00000390: c24f 093e 7857 cc3d 0ad1 d53d c69c fbbd
000003a0: db7a 68be 4048 73bd cecc 0a3d da33 00be
000003b0: 8e65 81be 9c75 6e3e 09f1 5cbe 69bf bebb
000003c0: d422 9fbe 7326 b6be 5d30 86bd dab2 433d
000003d0: ed51 8b3e aa9e 18be 76d3 57be 7cf2 93be
000003e0: 325d 953e a98b f4bb ac23 533e 6044 2cbe
000003f0: 7d24 9cbe 1a64 42be 63a4 39be 5a66 683e

conv2.bias f4 [64]
0.03638292 0.03294708 -0.008402568 0.0032289021 -0.003873369 0.040155742 0.060488146 0.013532036
0.04479749 -0.012270785 0.042271394 0.027461788 0.028040491 0.0024351652 0.032519925 0.0
0.033888016 0.03577694 0.0 0.03565936 0.078873575 -0.018285079 0.03901822 0.035870776
0.052654654 0.033844724 -0.002375529 0.011690322 0.07361011 0.047297854 0.0 0.012766102
-0.0064037493 -0.013741507 0.024631541 0.0 0.052946832 0.022144722 -0.018562939 0.013409571
0.034855697 0.0009859913 -0.008630874 0.024294281 0.055705253 -0.009642725 0.041701794 0.051442984
0.061079595 0.0 -0.021664739 0.0 -0.0039207255 0.028570497 0.0 0.06860745
0.033259746 -0.010836736 0.0649205 0.05928967 -0.013901956 -0.0069097565 0.063985474 -0.0020933675
00000000: 4206 153d 84f3 063d edaa 09bc fd9b 533b
00000010: 59d8 7dbb 597a 243d 6bc2 773d 79b5 5d3c
00000020: 937d 373d 670b 49bc c524 2d3d 8bf7 e03c
00000030: 2cb5 e53c 4b97 1f3b 9d33 053d 0000 0000
00000040: 29ce 0a3d d78a 123d 0000 0000 8d0f 123d
00000050: 7888 a13d 97ca 95bc 92d1 1f3d 3ced 123d
00000060: 68ac 573d c4a0 0a3d c3ae 1bbb c488 3f3c
00000070: e6c0 963d 65bb 413d 0000 0000 ea28 513c
00000080: 8bd6 d1bb 0f24 61bc 16c8 c93c 0000 0000
00000090: c7de 583d d968 b53c 4e11 98bc d1b3 5b3c
000000a0: d9c4 0e3d 613c 813a 8268 0dbc cd04 c73c
000000b0: 312b 643d 85fc 1dbc 80cf 2a3d e1b5 523d
000000c0: 992e 7a3d 0000 0000 407a b1bc 0000 0000
000000d0: 6e79 80bb ad0c ea3c 0000 0000 1082 8c3d
000000e0: 5f3b 083d 918c 31bc 0af5 843d bad9 723d
000000f0: 08c5 63bc 3d6b e2bb d10a 833d e130 09bb

conv2.lin.weight f4 [64, 64]
0.1401004 0.019695047 0.045221627 -0.07362925 0.015692916 0.032539617 -0.03625227 0.24287133
0.043895617 -0.17868726 -0.14865193 -0.11588987 -0.048281316 -0.1045056 -0.07283847 -0.19584773
0.14059068 0.18595928 -0.0077055017 0.26591796 0.0008211509 0.13562843 -0.21128954 0.062270835
0.1330689 0.17493111 -0.07167506 0.06004319 0.14874329 0.2022451 -0.2259388 -0.20177485
0.067542665 0.13041946 0.13688606 0.08102457 0.10150282 0.19405897 0.21497141 -0.047768384
0.27571905 -0.09720051 0.1111114 0.2588549 0.055136222 -0.11126004 -0.078841 0.18453608
0.10974051 -0.23113169 0.2988608 0.047902867 0.25562608 0.182936 0.027337 0.040843464
-0.023791105 0.08874502 0.24214831 -0.28161559 -0.16024663 -0.16095856 -0.1683856 0.050013922
-0.0011034608 0.21722618 -0.03198587 -0.04091417 -0.19371182 0.026889311 -0.02387754 0.11163969
-0.024894923 0.23636127 -0.24554986 -0.042021934 -0.029603345 -0.0070288177 0.14048153 0.08140153
0.042206153 0.20206104 0.14781 -0.05163275 -0.0911666 0.11574333 0.18454953 0.1621591
0.13971896 0.019163536 0.05850327 0.08880412 0.23180115 0.25652245 0.040900584 0.12714112
0.038915306 -0.08320716 -0.12927017 -0.031577054 0.050266046 0.15480267 0.15192266 0.22257902
0.06887084 0.19540168 0.20365739 -0.10957689 0.08628154 0.16108406 0.11014782 0.13497873
-0.1609576 -0.14153495 -0.062469065 0.21189721 0.023473362 -0.19639713 -0.3084099 -0.12722926
-0.10609147 -0.062920555 0.03568336 -0.0325739 0.13566536 -0.007904262 0.20123568 -0.11506902
-0.14323665 0.17249282 0.13607533 0.06120983 -0.111169614 0.10841738 -0.17725737 -0.084145464
0.10395564 0.0488903 -0.17866056 0.028274601 0.20583749 -0.17693262 -0.02332256 0.015216745
0.15351285 -0.20180973 -0.10127282 0.121234134 0.023802588 0.123445846 0.0544178 -0.027805015
0.16112296 -0.19690633 0.17221887 -0.0046613365 0.040786453 -0.13855568 -0.03154254 -0.15414372
-0.124245934 0.18192457 0.01963279 -0.12984104 0.10993646 -0.20684129 -0.1113502 0.05514834
0.15873295 0.21601368 -0.048607033 -0.15995416 0.13901027 0.0523441 -0.17258272 0.121246256
-0.17320678 -0.04313749 0.07108308 -0.09758303 0.15349764 -0.09666521 0.12642725 -0.06974886
-0.06714153 0.07742883 -2.6848713e-05 -0.16627292 0.0293166 -0.005997185 -0.11615887 0.10869085
-0.016448364 0.0758704 -0.18531747 0.119412705 -0.18121715 -0.19535694 -0.08621177 0.015689645
-0.15990096 -0.17226672 0.30937406 0.274052 0.18516046 -0.113858506 0.025285942 0.31983614
0.01925768 -0.008192755 -0.06856226 0.024871351 -0.0029520316 0.14837718 0.14205176 0.13376744
0.031160489 0.108664036 -0.024114665 -0.17823514 0.18510933 0.12353848 -0.05548911 0.2515734
-0.08660776 0.036497496 -0.005811588 0.037466995 0.25880048 0.109481275 0.17111154 -0.15193461
0.12657963 0.01128985 0.06877801 -0.039864544 -0.108599305 -0.14019242 -0.017312646 0.043520194
0.24140795 0.16210398 -0.24733654 0.028954342 -0.13580886 0.08918573 0.014853289 -0.111822896
-0.14281686 0.13775527 0.09156427 -0.054723833 0.20135985 -0.06202107 0.17207678 -0.19404049
00000000: 7b76 0f3e 8257 a13c 503a 393d efca 96bd
00000010: 6e8e 803c 4348 053d 437d 14bd 43b3 783e
00000020: e4cb 333d cbf9 36be 3638 18be ab57 edbd
00000030: a1c2 45bd 0807 d6bd 562c 95bd 4f8c 48be
00000040: 01f7 0f3e 1c6c 3e3e 6f7e fcbb 6626 883e
00000050: 8142 573a 2ee2 0a3e 495c 58be b40f 7f3d
00000060: 3743 083e 2421 333e 60ca 92bd d9ef 753d
00000070: 2950 183e 5719 4f3e 805c 67be 119e 4ebe
00000080: cf53 8a3d ae8c 053e dc2b 0c3e 36f0 a53d
00000090: b6e0 cf3d 65b7 463e 7721 5c3e c8a8 43bd
000000a0: 0c2b 8d3e 1011 c7bd 608e e33d a188 843e
000000b0: 85d6 613d 4edc e3bd 6477 a1bd 07f7 3c3e
000000c0: a2bf e03d c9ad 6cbe 4804 993e cc35 443d
000000d0: 6ce1 823e 9353 3b3e d8f1 df3c 7a4b 273d
000000e0: 90e5 c2bc f3bf b53d baf5 773e eb2f 90be
000000f0: b117 24be 52d2 24be 466d 2cbe 66db 4c3d
00000100: 00a2 90ba 8a70 5e3e 9e03 03bd 9e95 27bd
00000110: 645c 46be f946 dc3c d59a c3bc 5aa3 e43d
00000120: 70f0 cbbc b008 723e 6c71 7bbe 311f 2cbd
00000130: b782 f2bc ff51 e6bb 64da 0f3e d8b5 a63d
00000140: 5ce0 2c3d 17e9 4e3e 815b 173e dd7c 53bd
00000150: 8eb5 babd d70a ed3d 8dfa 3c3e 090d 263e
00000160: 7d12 0f3e d9fc 9c3c 20a1 6f3d efde b53d
00000170: 485d 6d3e e956 833e 5f87 273d 4831 023e
00000180: a865 1f3d 8468 aabd 665f 04be f156 01bd
00000190: c5e3 4d3d 9784 1e3e 9d91 1b3e c1eb 633e
000001a0: 280c 8d3d 6117 483e 908b 503e d969 e0bd
000001b0: 60b4 b03d 38f3 243e 2e95 e13d dd37 0a3e
000001c0: 12d2 24be 8aee 10be 90df 7fbd 95fb 583e
000001d0: 354b c03c 541c 49be e7e7 9dbe 6348 02be
000001e0: 7c46 d9bd 7edc 80bd b728 123d 366c 05bd
000001f0: dceb 0a3e e180 01bc ba10 4e3e 4ea9 ebbd
00000200: a1ac 12be f5a1 303e 5557 0b3e 29b7 7a3d
00000210: e5ac e3bd ee09 de3d f582 35be 7554 acbd
00000220: b2e6 d43d 3241 483d cbf2 36be 23a0 e73c
00000230: 10c7 523e d32d 35be f40e bfbc a84f 793c
00000240: 7932 1d3e 36a7 4ebe 2068 cfbd 9a49 f83d
00000250: a5fd c23c 2dd1 fc3d 33e5 5e3d 58c7 e3bc
00000260: 6bfd 243e d0a1 49be 255a 303e 20be 98bb
00000270: b20f 273d 8ae1 0dbe c032 01bd dad7 1dbe
00000280: a774 febd 6f4a 3a3e f2d4 a03c 0df5 04be
00000290: 5e26 e13d 34ce 53be 930b e4bd 3ae3 613d
000002a0: e48a 223e b132 5d3e 2b18 47bd 06cb 23be
000002b0: b558 0e3e c466 563d 86b9 30be f54f f83d
000002c0: 1e5d 31be f0b0 30bd 0194 913d 9dd9 c7bd
000002d0: 7c2e 1d3e 69f8 c5bd 2576 013e 7ed8 8ebd
000002e0: 8081 89bd 0293 9e3d 2c39 e1b7 7343 2abe
000002f0: 5e29 f03c 0984 c4bb b4e4 edbd 4f99 de3d
00000300: b8be 86bc f161 9b3d ddc3 3dbe a68e f43d
00000310: fd90 39be a60b 48be cc8f b0bd 9287 803c
00000320: 14bd 23be b066 30be 4766 9e3e 8b50 8c3e
00000330: b49a 3d3e a62e e9bd 7724 cf3c 90c1 a33e
00000340: 48c2 9d3c e83a 06bc 5f6a 8cbd 01bf cb3c
00000350: df76 41bb 30f0 173e 0476 113e 55fa 083e
00000360: 4844 ff3c 408b de3d 1e8c c5bc 4683 36be
00000370: 4d8d 3d3e be01 fd3d 8d48 63bd 3bce 803e
00000380: 695f b1bd 667e 153d 226f bebb fe76 193d
00000390: 7f81 843e b837 e03d dd37 2f3e bf94 1bbe
000003a0: 179e 013e 10f9 383c 7cdb 8c3d 0149 23bd
000003b0: 5069 debd 9a8e 0fbe 40d3 8dbc 3b42 323d
000003c0: a533 773e 96fe 253e ca45 7dbe a831 ed3c
000003d0: 7a11 0bbe 02a7 b63d 365b 733c 6703 e5bd
000003e0: 953e 12be b80f 0d3e 0c86 bb3d 1926 60bd
000003f0: 4731 4e3e ce09 7ebd e534 303e 8db2 46be

fc.weight f4 [18, 192]
0.19534938 0.1195774 -0.009007005 0.0078082597 -0.10175976 -0.105400026 0.16680716 0.09802122
-0.074390836 -0.07955665 0.06802815 0.0069884537 -0.13314463 -0.13506332 0.0691185 0.08417973
-0.16023403 0.14055772 0.046687976 -0.085187465 0.07852051 -0.117417894 0.052015968 0.03306603
-0.04155612 -0.1073687 0.047957435 -0.112028375 0.24716303 -0.05060046 -0.109593205 0.038365286
0.20779814 0.10824455 0.10337659 0.014649808 0.02464847 0.06494675 -0.05965094 0.1145704
0.15850326 0.10790626 0.1722085 0.008010978 0.15481192 0.04997866 -0.14023384 0.02053449
-0.032663893 -0.10425429 0.04849756 0.11898273 0.12285635 0.012697193 0.16044593 -0.023655938
-0.02488532 -0.1505245 0.13557665 -0.08504993 0.054528363 -0.13122569 0.09206407 0.035695385
-0.0097295195 0.1374911 -0.035953064 -0.1388433 -0.0337957 0.09294613 0.18407784 -0.1397007
0.13402896 0.103459425 0.08296861 0.1637958 -0.026313417 -0.028775014 0.04815666 0.16371334
0.13180262 -0.10913601 0.16686818 0.16581786 0.20612904 -0.101201735 -0.03559137 -0.028362012
0.04603161 0.120258264 0.10363487 -0.0015659617 0.11643505 -0.007087875 0.052690536 0.098181665
-0.12152771 -0.07832053 -0.08229979 -0.08179811 -0.17618234 -0.07721108 -0.07134734 0.13020977
-0.13482898 -0.09694096 -0.11813109 -0.1226203 0.028996402 0.22475068 -0.14937049 0.088083774
0.040018894 0.09728885 -0.058641378 -0.027557895 -0.0649854 -0.15588877 0.14918905 0.20700474
0.1221545 -0.12522624 0.15422912 -0.09843039 -0.08044898 -0.010765854 -0.034922678 0.12420384
0.07254687 0.13023046 0.006677561 -0.07507052 -0.06522023 0.0044257315 0.009488465 -0.15674348
0.07307676 0.057660416 -0.16888176 0.11803341 0.07609008 -0.0874623 0.13299434 -0.059884854
-0.09562426 0.18093808 -0.081911996 -0.136521 0.03681207 -0.047245856 -0.14301278 -0.07678819
0.11910734 -0.09998194 0.059415206 -0.084621325 -0.009704206 0.19000672 -0.14057109 -0.16046028
-0.108419254 0.12916891 0.06073239 0.094186336 -0.16188405 0.024258267 0.10696587 -0.05917664
-0.082621805 -0.13389319 0.09140804 0.103164494 -0.17972173 -0.10601417 -0.1521397 -0.08668424
0.09465385 0.007846892 -0.090755716 0.07943578 0.110747725 -0.04422664 0.023306355 -0.11026037
-0.17231762 0.14732753 -0.106790476 0.06069865 0.06919991 -0.05953814 0.015460755 0.027628569
0.21245654 -0.11342043 -0.18297914 -0.101243325 0.117370375 -0.0989672 0.16652673 -0.08640789
0.1222353 0.048440147 0.09707562 -0.019783584 0.18282938 0.07160978 0.07016412 -0.123964
0.16008966 -0.16022167 0.0171998 0.12792066 -0.03347134 0.13820122 0.11593057 -0.05769492
-0.069708 0.14338039 -0.08931984 -0.11560703 0.03149536 0.060017705 -0.113519624 -0.11126898
-0.006037473 -0.036877986 0.16916825 0.14099276 0.11908347 0.04132437 0.02891776 -0.05132141
0.1702219 -0.14580588 0.026762849 -0.04540671 -0.13663414 0.04487546 0.078792594 0.20540972
0.0424851 -0.0009884834 -0.09557083 0.011319846 0.15417868 -0.102185406 -0.041075647 0.10841568
0.145561 -0.080915555 -0.086704396 0.035352785 -0.13446781 0.082688406 -0.081277125 -0.0149182165
00000000: ab09 483e ffe4 f43d 1e92 13bc 6edc ff3b
00000010: 6c67 d0bd f8db d7bd 7fcf 2a3e 59bf c83d
00000020: 395a 98bd 99ee a2bd 5852 8b3d 66ff e43b
00000030: 1157 08be 0a4e 0abe 008e 8d3d 6c66 ac3d
00000040: 6414 24be 5dee 0f3e e43b 3f3d c476 aebd
00000050: 5ccf a03d cb78 f0bd b20e 553d 3f70 073d
00000060: c036 2abd 1fe4 dbbd 046f 443d 226f e5bd
00000070: 4e18 7d3e 6e42 4fbd 6772 e0bd eb24 1d3d
00000080: 09c9 543e 52af dd3d 1bb7 d33d c005 703c
00000090: 97eb c93c cd02 853d 8b54 74bd e3a3 ea3d
000000a0: ae4e 223e f5fd dc3d 6d57 303e 7a40 033c
000000b0: 0487 1e3e 6cb6 4c3d 7699 0fbe f237 a83c
000000c0: 93ca 05bd 4683 d5bd 61a5 463d 38ad f33d
000000d0: 1c9c fb3d e307 503c f04b 243e 19ca c1bc
000000e0: 4cdc cbbc 1823 1abe 9bd4 0a3e a82e aebd
000000f0: 2259 5f3d 0760 06be 168c bc3d 5335 123d
00000100: 9068 1fbc 78ca 0c3e 8543 13bd f02c 0ebe
00000110: 5c6d 0abd 8a5a be3d e77e 3c3e b30d 0fbe
00000120: e33e 093e 89e2 d33d 72eb a93d 16ba 273e
00000130: 3c8f d7bc 94b9 ebbc eb3f 453d 78a4 273e
00000140: 44f7 063e b382 dfbd 7edf 2a3e 28cc 293e
00000150: 7e13 533e db42 cfbd 42c8 11bd 7357 e8bc
00000160: a48b 3c3d f749 f63d 853e d43d f540 cdba
00000170: 8075 ee3d 6841 e8bb 08d2 573d 7813 c93d
00000180: 85e3 f8bd 8466 a0bd cb8c a8bd c485 a7bd
00000190: 2569 34be d820 9ebd 8e1e 92bd b655 053e
000001a0: 9c10 0abe fb88 c6bd b7ee f1bd 5a20 fbbd
000001b0: dd89 ed3c 0b25 663e 94f4 18be 4465 b43d
000001c0: daea 233d 603f c73d f131 70bd 18c1 e1bc
000001d0: 1117 85bd 4ea1 1fbe 04c5 183e 0df9 533e
000001e0: 232c fa3d 4f3b 00be 3dee 1d3e df95 c9bd
000001f0: 6fc2 a4bd 4463 30bc 150b 0fbd 955e fe3d
00000200: 7493 943d 225b 053e 71cf da3b 93be 99bd
00000210: 2f92 85bd ba05 913b 8275 1b3c 5d81 20be
00000220: 45a9 953d 542d 6c3d 57ef 2cbe 80bb f13d
00000230: 1ed5 9b3d 6f1f b3bd ab2f 083e d249 75bd
00000240: a7d6 c3bd d547 393e 7ac1 a7bd 29cc 0bbe
00000250: 41c8 163d df84 41bd f171 12be 2043 9dbd
00000260: 8dee f33d 55c3 ccbd 5c5d 733d f24d adbd
00000270: 64fe 1ebc 1f91 423e def1 0fbe b34f 24be
00000280: ea0a debd db44 043e 87c2 783d c4e4 c03d
00000290: efc4 25be 46b9 c63c ec10 db3d 3463 72bd
000002a0: 9f35 a9bd 4c1b 09be 2334 bb3d e847 d33d
000002b0: f908 38be f51d d9bd 82ca 1bbe 8287 b1bd
000002c0: e1d9 c13d 4090 003c 22de b9bd 3aaf a23d
000002d0: b4cf e23d fe26 35bd f8ec be3c 30d0 e1bd
000002e0: 0874 30be 07dd 163e f7b4 dabd 269f 783d
000002f0: afb8 8d3d 44de 73bd 1b4f 7d3c 4f55 e23c
00000300: 358e 593e f848 e8bd e25e 3bbe a958 cfbd
00000310: e15f f03d 51af cabd fc85 2a3e 9ff6 b0bd
00000320: 8056 fa3d 2d69 463d 95cf c63d 2f11 a2bc
00000330: a037 3b3e 26a8 923d 35b2 8f3d d6e0 fdbd
00000340: 8bee 233e 2611 24be 98e6 8c3c a2fd 023e
00000350: 3e19 09bd 9f84 0d3e 026d ed3d 8251 6cbd
00000360: 11c3 8ebd 4fd2 123e 52ed b6bd 61c3 ecbd
00000370: 4701 013d 20d5 753d fa7c e8bd fee0 e3bd
00000380: ffd5 c5bb 5f0d 17bd 713a 2d3e 6860 103e
00000390: 09e2 f33d be43 293d f0e4 ec3c 6636 52bd
000003a0: a64e 2e3e 234e 15be c33d db3c 63fc 39bd
000003b0: d2e9 0bbe 55cf 373d 035e a13d ed56 523e
000003c0: db04 2e3d 0090 81ba a4ba c3bd e076 393c
000003d0: 04e1 1d3e 9546 d1bd f03e 28bd 0a09 de3d
000003e0: f10d 153e 0eb7 a5bd 1392 b1bd 15ce 103d
000003f0: eeb1 09be 8a58 a93d 9f74 a6bd 896b 74bc

fc.bias f4 [18]
0.008558239 0.034645267 -0.009256457 0.074227154 0.0064700358 -0.027239235 0.044827588 -0.02838384
0.07681021 -0.070736155 -0.0502374 -0.02503073 0.019767417 -0.007378362 -0.055364512 -0.015233918
0.027906897 0.050168525
00000000: db37 0c3c 32e8 0d3d 65a8 17bc 6804 983d
00000010: 9802 d43b d124 dfbc 229d 373d 3a85 e8bc
00000020: ac4e 9d3d 1ede 90bd bbc5 4dbd 3f0d cdbc
00000030: 47ef a13c 30c6 f1bb e6c5 62bd af97 79bc
00000040: 019d e43c 837d 4d3d
